miniimagenet_feature_encoder_2way_1shot.pkl (torch, 464770 bytes, 24 tensors)

layer1.0.weight f4 [64, 3, 3, 3]
000000 ba 28 ad bc d1 83 fc 3e 60 c7 0d be ae 2d 9e be
       -0.021137584 0.49319318 -0.13845587 -0.30894226
000010 18 86 4c 3e 1b 60 a8 be b1 42 b0 3e f4 1f 7f 3f
       0.19973028 -0.32885823 0.34425882 0.9965813
000020 04 90 79 3e bd 7b d0 be 98 31 96 3e 9f 3d d0 bd
       0.24371344 -0.40719405 0.29334712 -0.10168003
000030 36 7c 7e bf 14 d4 e6 be 78 0a 78 bf f9 6c 02 bf
       -0.9940828 -0.45083678 -0.96890974 -0.5094753
000040 5c 1c 72 3e 32 b3 ff be 15 c6 8f 3d 5b 29 18 3f
       0.2364363 -0.49941403 0.07020203 0.59438103
000050 ea 0c c2 3e 05 42 b4 be 3b 01 ae 3c a1 43 10 be
       0.37900478 -0.3520662 0.021240821 -0.14088298
000060 ce 1c 0f be ff 3e 2a 3f 26 8d 5c 3e 59 ed 06 bf
       -0.13975832 0.66502374 0.21538219 -0.52705914
000070 6f c0 1d 3e ab b9 47 bf 11 d2 52 be 55 c7 09 bf
       0.15405439 -0.7801768 -0.20587946 -0.5381978
000080 d7 84 16 bf d1 78 4a bd 9b 29 38 bf 92 0f 08 3e
       -0.5879645 -0.049431626 -0.71938485 0.1328719
000090 84 2b 79 3d 61 1a 3a 3f b8 7e 4f be 13 2c 14 3f
       0.060832515 0.726965 -0.20263183 0.5787975
0000a0 34 a8 8f 3e 76 59 a3 3e c7 1e 18 3f 05 99 4e 3d
       0.28058016 0.3190419 0.5942196 0.0504389
0000b0 f0 af 60 3f fc 4d 89 be 2e ee 9d 3e b4 00 bf be
       0.8776846 -0.2681731 0.3084578 -0.37305224
0000c0 28 e7 9b bd 47 83 40 be c1 e5 2e be 2b 03 8b 3d
       -0.07612449 -0.18800078 -0.17079832 0.067877136
0000d0 27 70 15 bf f5 42 b9 3e 76 00 c7 3e 88 fe 10 3e
       -0.58374256 0.36183897 0.3886754 0.14159596
0000e0 91 1d 7e 3e 01 c6 89 be 71 a3 3e bf 69 82 5e bf
       0.24815966 -0.26908877 -0.7446814 -0.8691774
0000f0 9b 4d fb 3e 6b 1c 9d 3e b6 a3 8c 3e 8a e5 fd 3d
       0.49082646 0.30685744 0.27468652 0.12397297
000100 f4 9d 2d 3e 75 13 1d 3f d1 85 2b bf ce 12 04 bf
       0.16954786 0.61357814 -0.6700106 -0.51591194
000110 83 32 0a bf 73 90 4a 3e a3 c6 a5 3e a2 c2 c1 3e
       -0.53983325 0.19781666 0.3237811 0.37843806
000120 57 bd b0 3e 37 78 ff 3e c8 ce 68 3f 3d 9b 22 bf
       0.34519455 0.49896404 0.90940523 -0.63518125
000130 5c bb 00 bf 61 69 de be 91 01 06 be 5a bc 23 bd
       -0.5028589 -0.43439773 -0.13086535 -0.039974548
000140 59 a3 b3 3e 58 08 0f 3c 12 a6 58 bd 64 ef 85 3e
       0.35085562 0.008730017 -0.052892752 0.26159203
000150 b7 ba c9 bd 30 47 12 bf df 79 11 bf 7c 67 29 be
       -0.09850066 -0.57139874 -0.56826586 -0.16543382
000160 15 f5 4f bf 32 d0 bc bf 8a 55 2b 3e 51 93 af 3e
       -0.8123334 -1.4751036 0.1673185 0.3429208
000170 a5 95 40 3f 7f 58 e4 3e dd 5f 99 3e b9 b0 96 3e
       0.7522834 0.44598767 0.2995595 0.29431704
000180 9d 51 37 3f 61 32 b4 3e 19 d4 03 be ea bb d7 be
       0.71608907 0.35194686 -0.12873878 -0.42135555
000190 dc 02 1f be d2 cb 38 3e 59 e7 5d 3d b0 e1 26 be
       -0.15528435 0.18046501 0.05417571 -0.1629703
0001a0 7a 63 8b bd 02 ff e8 3e 31 5a 1b 3e fd 28 b8 be
       -0.06806083 0.45507056 0.15171124 -0.35968772
0001b0 62 c2 27 3e cf 5d 02 be 10 59 29 bf 55 45 97 3e
       0.16382745 -0.12731098 -0.66151524 0.29545084
0001c0 f4 28 49 3e 6b 1a 0d bf d0 68 29 3e e4 dd a3 3e
       0.19644529 -0.55118436 0.16543889 0.32005227
0001d0 79 f4 05 3e 69 11 00 3f 83 a3 bd 3d d7 22 3a bf
       0.1308154 0.50026566 0.09259703 -0.7270941
0001e0 4d 66 e9 3e 47 76 5f 3e e5 60 28 bf 37 68 70 3c
       0.45585862 0.21822463 -0.6577285 0.014673284
0001f0 ed 77 23 3e ea 00 37 be d7 45 8b 3f a9 35 bd 3e
       0.15963717 -0.17871442 1.0880688 0.36955002
000200 d0 fe 0e bf cc 41 1e 3f 7c 80 10 3e 3d 69 77 bf
       -0.55857563 0.6181915 0.14111513 -0.96644956
000210 3e 77 93 bd 5f 35 28 bd 24 64 21 bf cc 89 ea be
       -0.07200478 -0.041066524 -0.6304343 -0.45808256
000220 b0 17 86 3d 7d 9f 4c 3f 97 6d 48 bf 25 d8 b0 bd
       0.06547487 0.7993086 -0.7829222 -0.08634976
000230 60 3b 71 3f 0d 72 30 bf ff 96 a6 be 0f 22 38 3f
       0.94231224 -0.6892403 -0.32537076 0.7192697
000240 b5 84 a8 be f8 c2 9c bd 03 4a 01 3f ad c6 3f bf
       -0.32913747 -0.07654375 0.5050356 -0.7491253
000250 88 0c b9 be a7 8a 2a 3f da 25 a5 be f0 57 db be
       -0.36142373 0.66617817 -0.3225544 -0.42840528
000260 4e c8 01 3f 89 9f 6a be 7c 2b e6 bd 9f 5b 6d 3d
       0.50696266 -0.2291242 -0.11238763 0.057948705
000270 00 b0 58 be 7b 72 5b bd 86 a2 a2 3e f6 83 41 3e
       -0.21160889 -0.053575974 0.3176462 0.18897995
000280 cc dc 67 be 1b bd c9 3e 31 21 31 3f 49 e1 7a 3e
       -0.22642821 0.3940209 0.6919127 0.24500002
000290 5f 56 26 3d 24 64 05 3f 1d b4 a8 be 53 ec 3d bf
       0.040609714 0.5210593 -0.32949916 -0.7418873
0002a0 e8 1d 98 3c ff 4f 0d bf 2b a4 44 bf b8 c6 14 3f
       0.018568948 -0.5520019 -0.76813 0.5811572
0002b0 22 d4 bb 3c 3a 65 37 be 4f 49 fe 3e 45 31 31 bf
       0.022928301 -0.17909709 0.49665305 -0.69215804
0002c0 56 2a a2 bf d6 52 35 3d 79 af 3b bf ae 82 6c bf
       -1.266917 0.04426845 -0.73314625 -0.923869
0002d0 d3 de 4c 3e 05 64 1f be c0 26 7d be 0f 57 ab 3e
       0.20006876 -0.15565498 -0.24721813 0.33464858
0002e0 8a 11 8a be 3a 69 04 bf b7 2c 17 3d 0d 02 a1 be
       -0.26966506 -0.51723063 0.036907878 -0.31446877
0002f0 c5 ba a6 be 08 12 b6 be 56 df c1 3d e2 f2 f0 3e
       -0.3256437 -0.35560632 0.09466426 0.47060305
000300 ca 40 10 bf f0 87 1d 3e 8d 94 2a 3f 6c 85 fa be
       -0.5634886 0.15383887 0.6663292 -0.48929918
000310 b4 c0 5f 3e 87 52 fe 3e 1e c2 2f bf c7 61 c3 be
       0.21850854 0.49672338 -0.68655574 -0.38160536
000320 01 7c 5a 3d 20 d2 54 bf ee f9 16 be ee 3b da 3b
       0.053340916 -0.83133125 -0.14743778 0.006659976
000330 15 5a ce be ad c1 ca 3c d7 0e c2 3c 41 8e 8b be
       -0.40303102 0.024750555 0.023688717 -0.2725697
000340 dc 50 a9 3e 01 da 2d 3f 01 d4 15 bf e0 0a 08 3f
       0.33069503 0.6791077 -0.5852662 0.53141594
000350 55 4b 42 3f a1 fb e7 be c3 a9 cd 3e 07 bc 2e 3f
       0.758962 -0.45309165 0.4016858 0.68255657
000360 58 ba bb 3e 07 53 60 be 96 4a 0e bf 4d 43 4a 3f
       0.36665606 -0.21906672 -0.5558256 0.7900894
000370 1c 18 47 3f 50 6a ba bd d7 fd 19 3e c7 70 b0 be
       0.77771163 -0.09102309 0.15038238 -0.34461042
000380 ab 15 6a bf b5 8e 16 be 44 fe 89 be bb 51 99 3e
       -0.9143931 -0.14702876 -0.26951802 0.29945168
000390 21 75 3a 3e 09 c8 40 3f 15 6a 2e 3f a1 2b 1a bf
       0.18208744 0.7530523 0.6813062 -0.6022282
0003a0 97 04 28 bf b1 21 d7 bd 4b ce aa be 5a 1e ff be
       -0.65632004 -0.10504473 -0.33360514 -0.49827844
0003b0 e9 97 8e 3d 01 30 5d 3d 49 17 1b 3f 38 c8 0b 3f
       0.06962568 0.05400086 0.60582405 0.54602385
0003c0 23 06 d1 be 27 bf 4a be dc 3d eb 3d 28 76 fd 3e
       -0.40824994 -0.19799481 0.11486408 0.4950421
0003d0 86 3b 2b 3f bc b3 ea 3e fc c5 5c 3f 1a ab 7c 3f
       0.668877 0.4584025 0.862396 0.9869858
0003e0 1d 6a 13 3f b5 59 ca 3e a2 e6 07 3f aa 51 75 3e
       0.5758379 0.39521566 0.5308629 0.23956934
0003f0 ea 6b 62 be 19 01 95 be b2 35 2a be 1e cc e1 be
       -0.22111478 -0.291024 -0.16622046 -0.44101042

layer1.0.bias f4 [64]
000000 0a f7 05 42 13 f7 05 42 cb a5 07 42 fc 09 04 42
       33.49125 33.491283 33.911907 33.00975
000010 36 ea 06 42 f7 f1 07 42 e5 6e e8 41 f6 80 05 42
       33.72872 33.986294 29.054148 33.37594
000020 84 1e 08 42 4e 71 03 42 3e 50 c8 41 98 37 fa 41
       34.0298 32.86065 25.03918 31.277145
000030 ce 7e 01 42 74 34 fd 41 ca b0 07 42 cf dd 07 42
       32.373833 31.650612 33.922646 33.96661
000040 d2 0a fa 41 9e bc e2 41 b5 0a fe 41 44 05 02 42
       31.255283 28.342098 31.755228 32.505142
000050 f0 e1 01 42 7e de 06 42 78 c1 01 42 e1 c8 05 42
       32.470642 33.717278 32.438934 33.44617
000060 56 17 07 42 78 33 05 42 a0 84 06 42 af df 06 42
       33.77279 33.300262 33.629517 33.71844
000070 57 c6 e8 41 78 25 04 42 b0 74 06 42 3b da 00 42
       29.096846 33.03659 33.613953 32.213116
000080 3c 45 f1 41 17 ae 04 42 c8 a9 04 42 d7 08 07 42
       30.158806 33.17001 33.165802 33.758633
000090 01 eb 03 42 96 8d e6 41 e3 58 06 42 f9 3e e4 41
       32.979496 28.819134 33.586803 28.530748
0000a0 d4 bc da 41 b3 18 05 42 12 ff 07 42 93 09 05 42
       27.342201 33.27412 33.999092 33.25935
0000b0 e4 d1 06 42 d6 e7 01 42 1f a0 d1 41 78 74 e4 41
       33.70497 32.476402 26.203184 28.55687
0000c0 23 77 cd 41 84 8d d8 41 d2 96 09 42 7b 94 eb 41
       25.683172 27.0691 34.397285 29.4475
0000d0 41 14 fe 41 db 52 01 42 35 9e ec 41 a8 13 06 42
       31.75989 32.330914 29.57725 33.519196
0000e0 27 ef 07 42 d9 f7 ff 41 7c c8 02 42 c3 7c f3 41
       33.983547 31.99602 32.695786 30.435919
0000f0 0b f7 06 42 6f 79 06 42 b3 07 04 42 f4 ab e0 41
       33.741253 33.618587 33.00752 28.083961

layer1.1.weight f4 [64]
000000 32 61 37 3f 0b 7a 4f 3f 99 a7 60 3f dc 6f 4a 3f
       0.71632683 0.810456 0.87755734 0.79076934
000010 59 04 b1 3f 2b 5c ee 3f be 3f 26 3f 99 cd 7d 3f
       1.3829452 1.8621877 0.6494101 0.9914184
000020 85 d6 ad 3f d1 ce 66 3f 7f cd 4b 3f d7 a8 6b 3f
       1.3581091 0.90159327 0.7961044 0.92054504
000030 4c 4c 19 3f cc 53 ad 3e f0 92 03 40 47 f4 06 40
       0.59882045 0.33852994 2.0558434 2.1086595
000040 ff 7d f5 3e 96 08 16 3f a0 01 3d 3f 37 ed cd 3f
       0.4794769 0.5860685 0.73830605 1.6088017
000050 06 a2 82 3f f4 ef 9b 3f 9b ab 9e 3f 3f 47 5d 3f
       1.0205696 1.2182603 1.239612 0.8643684
000060 5a 7f c4 3f cf 68 99 3f 05 0b 7e 3f e1 83 ab 3f
       1.5351365 1.198511 0.99235564 1.3399621
000070 3b 50 31 3f 8f 57 6c 3f c7 cb 2a 3f 46 2d f4 3e
       0.69263047 0.92321104 0.6671719 0.4769079
000080 94 7b 31 3f cb 4b a0 3f 6a 1a ae 3f 45 41 c6 3f
       0.6932919 1.252313 1.3601811 1.5488669
000090 bb f2 07 3f 83 70 29 3f 84 62 b7 3f ff ce f6 3e
       0.5310475 0.66187304 1.432694 0.482048
0000a0 5a 1e 14 3f 5e 61 8d 3f c5 8e 89 3f 3e c1 39 3f
       0.5785881 1.1045339 1.0746695 0.7256049
0000b0 f0 ab b9 3f 60 d1 4c 3f fe 4f 18 3f aa 6c 31 3f
       1.4505596 0.8000698 0.5949706 0.69306433
0000c0 18 fd 24 3f 60 bc 2f 3f f1 90 b1 3f d4 ef 45 3f
       0.6444869 0.6864681 1.3872358 0.77319074
0000d0 c3 86 72 3f 54 80 e4 3e 68 e5 ef 3e bb 1a 75 3f
       0.9473688 0.44629157 0.4685471 0.9574391
0000e0 62 d9 f9 3f 80 10 2e 3f 4d 12 10 3f 13 1f 65 3f
       1.9519465 0.67993927 0.56277925 0.8950054
0000f0 05 65 b8 3f 94 2c c6 3f 2d 11 ae 3f ac fe 4c 3f
       1.4405829 1.5482354 1.3598992 0.800761

layer1.1.bias f4 [64]
000000 77 74 0c 3e 62 a0 26 bf 23 89 83 3e b1 1b 19 3e
       0.13716303 -0.65088475 0.25690565 0.1495197
000010 c2 56 4f 3d b8 58 ea 3b 62 29 eb be 5f 99 04 3f
       0.050619848 0.0071516894 -0.4593001 0.51796526
000020 19 28 f0 3e 0d 5e a0 3e 7b 88 de be 6a be 78 bf
       0.46905592 0.31321755 -0.434635 -0.9716555
000030 7a da 07 3e 46 a3 97 be 06 18 94 3f 1b e4 d0 3f
       0.13266936 -0.29616755 1.1569831 1.6319612
000040 11 81 2c bf 74 3d 3e bf fa 05 34 bf 4a a7 cd bf
       -0.6738444 -0.7431252 -0.7032162 -1.6066678
000050 94 e1 99 bf 4a e4 70 3f ea 2a 74 bf ea 10 7d be
       -1.2021966 0.9409834 -0.9537798 -0.24713483
000060 98 57 83 3f ef 33 ee 3e b9 c1 8f 3f 90 2f 91 bd
       1.0261106 0.46523997 1.1230994 -0.0708915
000070 bc 68 2f bf bc 5b 8b be 64 94 9b be 24 22 18 3e
       -0.68519187 -0.27218425 -0.3038665 0.14856774
000080 6f ee 09 bf 2a d4 50 3e f4 1c ff 3e c4 30 46 bd
       -0.53879446 0.20393434 0.49826777 -0.04838635
000090 86 1c 20 bf 3c 3e 60 bf 81 66 c4 3f fe a4 3e be
       -0.62543523 -0.8759496 1.5343782 -0.18617627
0000a0 29 9a e4 be 73 37 1f 3f 0f cb 57 bd dd 7a 97 be
       -0.44648865 0.62193984 -0.052683886 -0.29585925
0000b0 12 a1 d7 3e dd 44 cf 3e 4b 8a 44 bf de 9c 10 bf
       0.42115074 0.40482226 -0.7677352 -0.5648936
0000c0 f0 ec 5d bf 37 61 2e bf c9 03 a8 be 08 74 66 bf
       -0.8668966 -0.6811709 -0.32815388 -0.900208
0000d0 56 4f 45 bf 9c 5c 17 3e b3 93 18 be 83 54 cb be
       -0.7707418 0.14781421 -0.14900093 -0.39712915
0000e0 56 9c 9e 3c 15 fd 6e be e9 45 c6 be 97 c5 51 bf
       0.019361656 -0.2333873 -0.38725212 -0.81942123
0000f0 b4 70 49 bd c1 85 ab 3e 2d 21 a6 bf 2d f8 20 bf
       -0.049179748 0.33500484 -1.2978874 -0.62878686

layer1.1.running_mean f4 [64]
000000 ce dd 16 42 d8 22 1a 42 6f 82 f8 41 5e 70 12 42
       37.716606 38.534027 31.063688 36.609734
000010 12 7e 0d 42 2d f5 0f 42 2d 38 79 42 6e 8b f2 41
       35.373116 35.98943 62.30486 30.31808
000020 54 e2 06 42 24 71 00 42 bf 4b ca 42 43 37 c3 41
       33.721024 32.11049 101.14794 24.401983
000030 d7 22 22 42 9d 57 d5 41 63 d4 03 42 1a 60 06 42
       40.534023 26.66778 32.95741 33.59385
000040 7e df 4b 42 c1 cc 56 c1 78 df d8 41 d4 1a 05 42
       50.968254 -13.424989 27.109116 33.2762
000050 87 98 18 42 7d ee fe 41 54 88 ea 41 43 b8 eb 41
       38.148952 31.86645 29.316566 29.464972
000060 de ce fb 41 ed 83 12 42 c5 41 10 42 65 f6 0a 42
       31.47601 36.628834 36.064228 34.74062
000070 3e fe 19 42 6a 82 29 42 00 fb 0f 42 31 38 06 42
       38.498283 42.377357 35.995117 33.554874
000080 3f 3c 30 42 28 93 0a 42 64 46 08 42 4a 4d 03 42
       44.058834 34.643707 34.06874 32.825478
000090 41 c7 0e 42 31 ae b3 42 ec cd 01 42 d2 61 3f 42
       35.694584 89.84022 32.451096 47.845528
0000a0 bd 99 58 42 78 86 0f 42 e4 7b 12 42 d7 37 12 42
       54.150135 35.881317 36.620987 36.55453
0000b0 4a 85 06 42 92 c7 08 42 73 84 4c 42 6d 5f 45 42
       33.630165 34.194893 51.129345 49.34319
0000c0 ac 4e 5f 42 f2 a2 16 42 3f ec 04 42 78 41 e1 c0
       55.826828 37.659126 33.23071 -7.039242
0000d0 84 b5 40 42 fc 31 00 42 ea fe 8d 42 70 89 04 42
       48.17726 32.048813 70.99788 33.134216
0000e0 65 9b 07 42 1e 32 8a 41 4a 97 ff 41 56 6c 0b 42
       33.901752 17.274471 31.948872 34.855797
0000f0 6b ce 11 42 40 9b 15 42 fc 97 0a 42 5e 76 9e c1
       36.45158 37.40161 34.648422 -19.807796

layer1.1.running_var f4 [64]
000000 dd 86 5b 41 dc 66 77 41 ce 28 3e 41 f7 91 b0 41
       13.720426 15.462612 11.884962 22.071272
000010 81 56 0a 42 1e 93 1b 42 be 2b 72 43 f1 a8 1d 42
       34.584476 38.89367 242.17087 39.41498
000020 70 49 02 41 7b c2 18 42 64 ae 8c 44 78 63 6e 41
       8.142929 38.189922 1125.4497 14.899284
000030 c1 17 06 42 e7 be 60 41 7e cb 03 42 71 f9 d3 41
       33.523197 14.046607 32.948723 26.496798
000040 3c e6 c5 42 78 b1 b4 43 8c 7b 3f 42 ab a9 0a 42
       98.94968 361.38647 47.87065 34.66569
000050 db 54 84 41 21 41 4a 41 55 56 10 42 fd 15 1e 41
       16.541433 12.640901 36.08431 9.880368
000060 fb 38 0b 42 50 14 1c 42 11 ea fc 41 8e 42 70 41
       34.805645 39.019836 31.61429 15.016249
000070 27 fb 3a 42 9d 9a c1 41 45 ed b3 40 65 a3 15 42
       46.745266 24.200495 5.6227136 37.409565
000080 d3 85 93 42 29 f9 da 41 fe fd 1f 42 36 4b 25 42
       73.761375 27.37166 39.99804 41.32345
000090 09 b7 ee 40 0c ab 31 44 73 79 f2 41 27 0b e1 42
       7.459843 710.6726 30.309301 112.52178
0000a0 53 3e 21 43 a6 f4 1b 42 83 47 3b 41 cd 56 2b 41
       161.24345 38.988914 11.704959 10.708692
0000b0 5e e0 35 42 67 90 4a 42 0d ef 14 43 7f 2e cd 42
       45.46911 50.641018 148.93379 102.59081
0000c0 df 2c 3d 43 55 db 12 42 ed 9f fa 40 15 13 8a 43
       189.17528 36.71419 7.832022 276.14908
0000d0 23 1b 92 42 cb c0 ef 41 23 16 a9 43 7a 41 b9 40
       73.053 29.969137 338.17294 5.7892427
0000e0 7a 45 17 42 0a a1 8b 42 ed 59 04 42 cb 44 30 42
       37.81785 69.81453 33.08782 44.06718
0000f0 7b 91 3d 41 3e c1 08 42 18 09 cf 41 6e e6 f3 43
       11.848018 34.188713 25.87944 487.80023

layer2.0.weight f4 [64, 64, 3, 3]
000000 86 28 34 3f d5 02 f8 3e 58 7a 92 bd 0d d9 91 3f
       0.70374334 0.4843966 -0.071522415 1.1394364
000010 7f 57 0a 3f 09 76 ff bd ab bc c1 3f 41 9f 6c 3f
       0.5403976 -0.12473685 1.5135702 0.924305
000020 0e 24 44 3f 2f b4 7a 3e 11 39 6b bc 4f 32 91 bc
       0.76617515 0.24482797 -0.014356867 -0.017724184
000030 71 f3 64 3e 38 d8 06 3d bb 3b c4 3c f2 2f d5 be
       0.2235849 0.032921046 0.023954263 -0.41638142
000040 01 4e 1b bf 44 30 85 bf 00 d2 f9 3d 5e ac 5a be
       -0.606659 -1.0405354 0.121982574 -0.21354815
000050 d5 9e 01 3e 0d dd c3 3c 89 eb 02 bf 5f 0d dc be
       0.12658246 0.023909116 -0.5114065 -0.4297895
000060 ea d0 9d 3e 8e 66 d8 bd 95 7c 17 3e 0e 0b 65 3f
       0.3082345 -0.10566436 0.14793618 0.89469993
000070 f3 3c 18 3f 8e 60 63 3e a2 cf c4 3e ec a8 f1 3e
       0.59468 0.22204801 0.3843966 0.4719919
000080 ad 10 0d 3e f9 70 31 3d 6a e9 1d 3e b5 fd c6 bc
       0.13775893 0.04332063 0.15421072 -0.024290899
000090 a3 9c cf bc 6c 87 93 3e 5d 8f fb bb b8 7d 00 3e
       -0.025343245 0.28814256 -0.0076770023 0.12547958
0000a0 75 f4 92 3e 43 07 ad 3e 1c bc 87 3d c1 20 49 3e
       0.2870213 0.33794603 0.06627676 0.19641401
0000b0 8c c6 f0 3e 8c ff 82 bd c1 0a 08 bd d5 5f a0 3e
       0.4702648 -0.06396398 -0.03321338 0.31323114
0000c0 88 16 80 be 0f c1 56 3b 7b a9 b6 3d ce 28 82 be
       -0.2501719 0.003276888 0.089190446 -0.25421757
0000d0 47 68 5b be fc 12 2c be 37 a3 21 3f 8e 58 4d 3f
       -0.21426497 -0.16804117 0.6313967 0.8021325
0000e0 eb e3 e4 3d 4a 04 6c 3f c4 62 78 3f b3 9c 2f 3f
       0.111762844 0.92194045 0.97025704 0.6859848
0000f0 4c 4d 97 3f 3e 3c c3 3f cd 39 a8 3f cc 4f ad 3e
       1.1820464 1.525276 1.3142639 0.33849943
000100 b1 c4 09 3e 0a 71 c6 3e fa d5 07 3e bf 45 06 3e
       0.13453938 0.38758117 0.1326522 0.13112544
000110 02 38 ba 3d 1e 87 81 3e 4a 6b 6c 3d 25 6b 4b be
       0.09092714 0.252984 0.057719506 -0.19865091
000120 8f 95 15 be 2b 08 14 bf 8b 0a 21 bd 26 7a 34 3e
       -0.14607833 -0.57824963 -0.039316695 0.17624721
000130 b2 f1 c8 be cc a2 5d be c3 71 21 3e 82 18 69 bd
       -0.392469 -0.21644133 0.15766053 -0.056908138
000140 3a 68 99 bc d1 79 34 be b7 5a 1a 3e 84 10 25 3f
       -0.018726457 -0.17624594 0.15073667 0.64478326
000150 2e 2a 4b bf ca 90 c1 be c5 fc 1e 3e 6e c5 40 bf
       -0.79361236 -0.37805778 0.15526111 -0.75301254
000160 f8 b8 ac be 0c b7 a8 3d 27 df 78 bf 09 7f ee be
       -0.3373487 0.082380384 -0.97215503 -0.46581295
000170 b1 e5 16 bf aa 7e 24 bf 8a 7a af be de f0 28 be
       -0.5894423 -0.64255774 -0.34273177 -0.16498134
000180 2f 90 0f be 3d 9a 88 3e 13 c7 08 3f 44 11 2b 3f
       -0.14019845 0.26680174 0.53428763 0.6682322
000190 03 87 3f 3e b4 88 0b 3e ab ea 72 3f a8 d0 1c 3f
       0.18703847 0.13626367 0.94889325 0.61255884
0001a0 c5 4e 47 3f 57 2a 07 3f c2 33 a0 3e f2 41 53 3e
       0.7785457 0.5279898 0.31289488 0.20630625
0001b0 d5 c6 07 bf 88 ea d8 be 7e 71 2f bd 7a 2d e0 be
       -0.5303777 -0.42366433 -0.042832844 -0.43784696
0001c0 8b c6 38 be b1 21 81 bd 2e 5b 67 be 27 81 92 be
       -0.18044488 -0.06305254 -0.22593376 -0.2861416
0001d0 8e 9a 2b be d7 ae f0 3e d0 6e 3f 3e 85 76 b2 be
       -0.16758177 0.47008392 0.18694615 -0.34856048
0001e0 3f 01 04 3f b3 f2 12 3f eb bd 62 bd 00 9b 0a 3f
       0.515644 0.5740158 -0.0553569 0.5414276
0001f0 b3 ad 15 3f 69 54 91 3c 4c 99 da 3d 4a f6 0e bd
       0.5846817 0.017740445 0.1067377 -0.03490285
000200 d0 ec 96 3d 12 ca c5 be b1 04 92 be 76 8c 6b be
       0.07369387 -0.3863073 -0.28519204 -0.230028
000210 0f 9b d9 3d d7 3f cb be a2 80 fc be 5c 48 53 3f
       0.10625278 -0.39697143 -0.4931689 0.82532287
000220 3e 63 a8 3e 9e 21 de 3d a0 d2 cb 3e 22 fb 5c 3c
       0.32888216 0.10846256 0.39809132 0.013487609
000230 9e f8 66 3d 52 0e ed 3d 03 23 b3 bd ef bb 9b 3e
       0.056389444 0.11574997 -0.08746912 0.3041682
000240 28 ac 51 bd 4a f1 4f 3e 56 8c 3a 3f fe 0d 04 3e
       -0.05118957 0.20306888 0.72870386 0.12895963
000250 c6 52 ff 3e eb cc 44 3f df 98 c7 3e 56 cf 32 3f
       0.4986784 0.7687518 0.3898382 0.6984762
000260 b6 0d 2a 3f 3c d4 2c bf 9a 99 83 bf db 5a 21 bf
       0.6642717 -0.67511344 -1.028125 -0.6302926
000270 ad 0a c4 bd 78 bf b3 be f4 1c e6 be 9a 5b f9 3d
       -0.09572349 -0.35107017 -0.44943964 0.12175675
000280 76 a7 81 3e 08 b6 ae 3e b5 93 1a bf 4b 5a c1 be
       0.25323075 0.34123254 -0.60381633 -0.377642
000290 7d 8d 29 bf 13 9b 5a bf 44 95 2a bf 0a d5 8b bf
       -0.6623152 -0.85392874 -0.6663401 -1.0924389
0002a0 1a a3 d8 bf dc 96 ce bf 67 93 e7 bf ac ba d9 3d
       -1.6924775 -1.6139789 -1.8091859 0.10631308
0002b0 71 a0 25 be d0 2d 11 3f 22 25 19 3f a6 22 59 3f
       -0.16174485 0.5671053 0.59822285 0.84818494
0002c0 15 94 5b 3f 16 72 c9 3d 93 44 05 3f d9 be ff 3d
       0.8577283 0.09836213 0.5205776 0.12487573
0002d0 c6 77 db be 2c 93 ef be 6c 89 98 bf a2 18 71 3e
       -0.42864817 -0.4679197 -1.1916938 0.23544553
0002e0 ac 4e 0d bd 4b b6 70 bf 24 dc 15 3f 7c 3a ad 3e
       -0.034498855 -0.94028157 0.5853903 0.33833683
0002f0 b4 f7 1e bf 9e 06 13 3f 5d 12 27 3f 66 5c 54 3f
       -0.62096715 0.5743197 0.65262395 0.8295349
000300 e7 87 28 3f 9c a6 02 3f 69 5a 39 3f b1 8c e8 3d
       0.6583237 0.51035476 0.7240358 0.1135496
000310 89 81 fa bd 23 53 b7 bd 25 d7 2c bf a0 be 5d bf
       -0.12231738 -0.08951404 -0.67515785 -0.86618996
000320 00 48 a3 bf bd c7 26 bf 4d 47 47 bf 00 26 f8 be
       -1.2756348 -0.65148526 -0.7784317 -0.48466492
000330 23 69 1c bf 51 34 68 bf 8d b5 09 bf e3 ee 41 3e
       -0.61097926 -0.9070483 -0.5379265 0.18938784
000340 6c 17 ef bd 5d 0f 53 bf d7 48 a2 3e dc 68 15 bd
       -0.11674389 -0.8244532 0.31696197 -0.036476955
000350 31 f9 26 bf 19 0a 3d be ce d0 e6 be f3 d2 65 bf
       -0.65223986 -0.18460883 -0.4508118 -0.8977501
000360 5d 5d 15 be e0 38 27 3e 2f 5f ea be dd 85 8a be
       -0.14586397 0.1633029 -0.45775744 -0.27055255
000370 a6 9f 64 be f3 d1 c2 be 4a 10 9c be 45 1f 87 bd
       -0.22326526 -0.38050804 -0.30481178 -0.06597761
000380 31 ea 05 be 97 13 49 be cb 38 c4 be 68 19 06 3d
       -0.13077618 -0.19636379 -0.3832458 0.032739073
000390 7b c0 a4 be 2e 86 91 be 4c dd 65 3d d3 f3 06 3e
       -0.321781 -0.28422683 0.05611925 0.13178949
0003a0 bf 1b 47 be 8f b5 a6 be aa d4 c1 3e 7b c9 31 3e
       -0.19444178 -0.32560393 0.37857562 0.17362015
0003b0 65 3a 41 3f 17 51 39 3e a8 71 ef 3e bc 65 18 3f
       0.7547973 0.1809734 0.467664 0.59530234
0003c0 de 8b f4 3d 75 2a 6a 3c db 7a ee bb e3 cc 44 3f
       0.1194074 0.014292349 -0.007277829 0.7687513
0003d0 2b 2f eb 3e e3 c6 55 3e 0e 07 57 3f d9 3d 53 3f
       0.45934424 0.2087665 0.8399514 0.8251625
0003e0 6b 4d 05 3f 84 e5 a9 3e 9b 8f a0 3e 8e 8d ce 3d
       0.52071255 0.3318292 0.31359562 0.10085593
0003f0 ba 8b 40 3f 74 dc eb 3e a9 52 02 be 84 b2 66 3f
       0.75213206 0.4606663 -0.12726845 0.90116143

layer2.0.bias f4 [64]
000000 7f 4a 05 41 b5 f1 0e 41 55 9a fe 40 17 6b 14 41
       8.3306875 8.9340105 7.9563394 9.276145
000010 6a 09 1f 41 22 14 07 41 27 8b 11 41 cb 9e ec 40
       9.939798 8.442415 9.096473 7.394384
000020 c2 22 0f 41 14 d0 16 41 a1 e3 09 41 e5 22 14 41
       8.945986 9.4258 8.618073 9.258519
000030 0c 33 1b 41 99 e2 03 41 5d 6f 08 41 58 e7 fa 40
       9.699963 8.242822 8.527188 7.84074
000040 b9 3c 49 41 ea 1e 13 41 3a c4 25 41 14 de 05 41
       12.577325 9.195047 10.360407 8.366718
000050 36 db 1d 41 fd 70 fd 40 8f b3 ef 40 57 81 d8 40
       9.866018 7.9200425 7.490669 6.7657886
000060 dc 70 c0 40 51 fc e9 40 b3 89 12 41 d0 d7 1e 41
       6.013777 7.3120503 9.158618 9.927689
000070 97 17 4d 41 35 97 0c 41 05 56 f3 40 c9 77 14 41
       12.818259 8.786916 7.6042504 9.279244
000080 b2 62 1f 41 1b a7 08 41 d3 ac 17 41 0e c1 08 41
       9.961596 8.540797 9.479693 8.5471325
000090 fd b2 f1 40 d1 54 1d 41 71 88 25 41 ee d8 0a 41
       7.553099 9.833207 10.345811 8.677961
0000a0 a6 3e 37 41 30 91 18 41 2a 34 d3 40 a5 ba 0d 41
       11.452795 9.535446 6.6001177 8.8580675
0000b0 54 2d 17 41 25 49 42 41 c2 38 03 41 b4 35 d6 40
       9.448566 12.142858 8.201357 6.6940556
0000c0 65 54 c5 40 cb ea 02 41 b8 74 13 41 ee 20 30 41
       6.166552 8.1823225 9.215996 11.008039
0000d0 84 4c 0f 41 74 73 1f 41 27 97 f3 40 1f e1 24 41
       8.956181 9.965687 7.612201 10.304961
0000e0 44 14 29 41 66 87 55 41 8c 91 1f 41 36 b6 e2 40
       10.567448 13.345556 9.973034 7.0847425
0000f0 42 8d 06 41 da 40 1c 41 29 d6 0b 41 91 c0 08 41
       8.409487 9.765833 8.739785 8.547013

layer2.1.weight f4 [64]
000000 99 5f d8 3e ef 1b 82 3f b1 9a 5d 3f 23 0a 95 3f
       0.42260435 1.0164775 0.86564165 1.1643718
000010 62 eb a8 3f 85 e2 74 3f e4 96 06 3f ec 70 9a 3f
       1.3196833 0.9565814 0.5257399 1.2065711
000020 8c 2d a0 3f 3a cd ad 3f a0 37 99 3f 04 06 8f 3f
       1.25139 1.3578255 1.19701 1.1173711
000030 46 b0 66 3f af 8f a4 3f 4d 43 99 3f 5b 2c 51 3f
       0.9011272 1.2856349 1.1973664 0.81708306
000040 9a 8d 93 3f d5 c0 11 3f 92 02 d7 3f 48 f2 48 3f
       1.1527588 0.56934863 1.6797659 0.7849469
000050 37 61 8c 3f 14 83 5d 3f 17 9d 45 3f ea 6b 96 3f
       1.0967168 0.86528134 0.77192825 1.1751683
000060 dd 51 81 3f 4e fc 30 3f 9e 27 b4 3f 2a 62 d7 3f
       1.0103108 0.69134986 1.407459 1.6826832
000070 04 f2 87 3f 35 a6 8c 3f ad 71 58 3f 77 8e 70 3f
       1.0620732 1.0988222 0.84548455 0.93967384
000080 35 6a a4 3f ea a0 92 3f 94 93 40 3f cb 00 1a 3f
       1.2844912 1.1455357 0.75225186 0.6015746
000090 6f b1 63 3f e6 17 3d 3f b9 09 61 3f 22 ad 72 3f
       0.8894262 0.7386459 0.8790546 0.9479543
0000a0 db 20 b1 3f 82 6e 1d 3f 30 86 98 3f da e1 ba 3f
       1.3838152 0.61496747 1.1915951 1.4600174
0000b0 65 57 b0 3f d8 1b 98 3f 4e cd 16 3f 8c 3c 3b 3f
       1.3776671 1.1883497 0.5890702 0.7313926
0000c0 79 bf 78 3f 9b b5 9a 3f 28 0e a9 3f c2 0c c5 3f
       0.97167164 1.2086672 1.3207445 1.5394518
0000d0 93 43 a5 3f c1 94 8e 3f 6f 19 7e 3f d6 c6 48 3f
       1.2911247 1.1139146 0.9925756 0.784284
0000e0 56 a5 a2 3f 21 9e a7 3f 90 87 be 3f 5b a4 6e 3f
       1.2706707 1.3095132 1.488512 0.93219537
0000f0 b3 92 31 3f c9 d7 80 3f 0b b4 be 3f 34 1f 8e 3f
       0.6936447 1.0065852 1.4898695 1.1103272

layer2.1.bias f4 [64]
000000 2b 30 9f bd 7b 27 c0 3f 99 3d 6c be 01 3c c8 be
       -0.07772859 1.5012048 -0.23070373 -0.3910828
000010 60 ee 3d bf e3 c7 8b bf 0e d0 ee bd bc 0b 0b bf
       -0.74191856 -1.0920376 -0.11660777 -0.5431478
000020 32 8b 5b be 7d 09 1c bf 44 3a 71 be c9 ee 43 bf
       -0.21439818 -0.6095198 -0.23557383 -0.7653623
000030 e9 b9 b1 be f4 90 40 bf e6 ed f3 be 3b 54 a3 bd
       -0.3471215 -0.7522118 -0.4764244 -0.0797505
000040 84 4d 82 be e4 c1 12 bf 68 11 e5 be 68 c0 91 be
       -0.25449765 -0.57327104 -0.44739842 -0.28467107
000050 32 91 17 bf a0 85 36 bf f4 6b f1 be 19 fb 08 bf
       -0.59205925 -0.71297646 -0.47152674 -0.53508145
000060 60 26 db be dc 92 1a bf 10 3c 11 bf fd c5 59 bf
       -0.42802715 -0.6038034 -0.56732273 -0.8506773
000070 2e d2 46 bf 99 59 aa 3c 87 02 ac be a0 26 19 bf
       -0.7766446 0.020794677 -0.33595678 -0.5982456
000080 c5 1e 51 bf eb c4 e6 be 24 e4 1e bf e0 57 da be
       -0.81687576 -0.4507211 -0.62066865 -0.42645168
000090 41 90 26 bf 12 cc ee be 1d b9 4c bd 34 ec be be
       -0.65063864 -0.46640068 -0.049981225 -0.37289584
0000a0 55 91 28 bf ed 29 a6 be 56 99 08 bf c9 b3 fe be
       -0.6584676 -0.32453862 -0.5335897 -0.4974654
0000b0 10 b0 f6 be d9 7c 59 bf 9e 1e b8 be 0b 87 fd be
       -0.481812 -0.8495613 -0.3596086 -0.49517092
0000c0 01 90 28 bf 74 11 1a bf cf e6 23 bf c6 f1 73 bf
       -0.6584473 -0.6018288 -0.6402406 -0.9529079
0000d0 d2 b2 ec be 47 c1 0e bf 5f 6c f4 be d6 81 ad be
       -0.4623018 -0.5576367 -0.4773893 -0.3388812
0000e0 d0 55 24 bf d0 68 35 bf a8 f5 6a bf cf e3 16 be
       -0.6419344 -0.70863056 -0.9178109 -0.1473534
0000f0 27 ae c8 be a9 d4 02 bf e4 7f 2e bf 7b 91 04 bf
       -0.39195368 -0.51105744 -0.68163896 -0.51784486

layer2.1.running_mean f4 [64]
000000 09 0d b5 41 90 25 3a c1 af f9 cf c0 d1 cb 6c c1
       22.631365 -11.634171 -6.499229 -14.79976
000010 d9 e5 95 c0 04 8f 35 41 77 15 0f 41 20 68 83 c1
       -4.6843076 11.347416 8.94274 -16.425842
000020 c1 b9 92 c1 35 15 a6 c1 03 04 33 c1 5e 4b 24 c1
       -18.3407 -20.760355 -11.188479 -10.2684
000030 0c f0 00 c1 38 a0 be c1 5b 89 7a c1 c9 19 07 c2
       -8.058605 -23.828232 -15.658534 -33.77518
000040 0d d3 0d 41 e7 f2 0a c0 79 90 31 c1 81 56 87 c1
       8.864026 -2.1710756 -11.097772 -16.917238
000050 b3 88 59 c0 99 d1 83 c1 1d 38 c8 c1 31 36 7b c2
       -3.3989685 -16.477343 -25.0274 -62.80292
000060 d4 70 e4 c1 48 b8 0d c1 eb b3 c4 c1 04 42 84 c1
       -28.555092 -8.857491 -24.58785 -16.532234
000070 3c fd 98 40 f7 83 0b 3f 13 7f ab c1 3f 4e de c0
       4.7809124 0.5449824 -21.437048 -6.9470515
000080 75 34 98 c0 ee ad a2 c1 9c 7c e5 3f ef be 81 bf
       -4.7564034 -20.334927 1.7928653 -1.0136393
000090 b5 e6 5d c1 b0 03 30 41 2b 44 28 c1 f4 8e 90 c0
       -13.868825 11.0009 -10.516643 -4.5174503
0000a0 44 ba 88 40 47 1d de 41 c4 c9 5c c2 a0 13 c8 c1
       4.2727375 27.764296 -55.197037 -25.009583
0000b0 c8 85 22 c0 47 24 48 40 78 e1 66 41 bb fd ec c0
       -2.5394154 3.1272142 14.430046 -7.405973
0000c0 21 94 69 c2 83 d1 06 c2 41 b1 b6 c0 1d 04 8d 40
       -58.394657 -33.7046 -5.7091374 4.406752
0000d0 37 a8 53 c1 bd 0a 44 c0 8c 0f 4b c1 ae 58 6a 40
       -13.228568 -3.0631554 -12.691296 3.6616626
0000e0 ba 18 97 c0 85 4b 32 40 65 61 2e c1 15 01 52 c2
       -4.7217684 2.7858593 -10.898778 -52.501057
0000f0 a4 aa 98 41 9a 89 fe 3f 05 e2 aa c1 f3 37 34 c0
       19.08332 1.9885743 -21.360361 -2.8159149

layer2.1.running_var f4 [64]
000000 a2 1a a1 43 1c b6 80 44 c4 a5 cd 43 77 ff 7f 44
       322.20807 1029.6909 411.29504 1023.99164
000010 78 9c 2c 44 5f 4a 93 43 e8 f9 5d 43 f6 f9 41 44
       690.4448 294.58102 221.9762 775.90564
000020 e4 be 3c 44 33 87 ab 44 34 79 88 44 f1 4c f3 43
       754.98267 1372.225 1091.7876 486.6011
000030 cf 51 19 44 25 26 bd 44 11 f8 91 44 14 60 50 44
       613.27826 1513.192 1167.7521 833.5012
000040 32 01 c6 42 d2 02 4e 43 eb 87 32 44 cb 4a fc 43
       99.002335 206.01102 714.1237 504.58432
000050 95 c3 eb 43 1f c1 8e 43 c2 55 5e 44 54 59 22 45
       471.52798 285.50876 889.33997 2597.583
000060 b2 a4 cb 44 36 b9 fc 43 df db b4 44 c9 21 88 44
       1629.1467 505.44696 1446.871 1089.0558
000070 3a 12 dc 42 c2 70 96 44 2c 74 ab 44 cf 38 c4 43
       110.0356 1203.5237 1371.6304 392.44382
000080 82 e7 c5 43 3b d0 b8 44 ec 7c 3e 43 c2 19 d8 43
       395.80865 1478.5072 190.48798 432.20123
000090 b9 61 1e 44 88 ce dd 43 da a7 73 43 39 dc f1 43
       633.5269 443.61353 243.65567 483.7205
0000a0 5b de c0 43 31 c6 9b 43 cb 95 21 45 24 f8 b2 44
       385.73715 311.54837 2585.362 1431.7544
0000b0 77 71 04 44 09 2d b3 42 fb e1 5d 43 6d f3 43 44
       529.7729 89.58796 221.88274 783.8035
0000c0 5d 5e 22 45 39 9f ef 44 00 82 63 44 13 a7 f1 43
       2597.8977 1916.9757 910.03125 483.30527
0000d0 41 be 33 44 13 39 9d 43 76 1a 95 44 ec 00 80 43
       718.9727 314.4459 1192.8269 256.0072
0000e0 6b 50 f8 43 ce 93 de 42 9a 93 41 44 db 57 cb 44
       496.62827 111.28868 774.3063 1626.7455
0000f0 da e5 c6 43 8c 0f 12 44 fe 53 8d 44 0e a3 a8 44
       397.79572 584.2429 1130.6248 1349.0955

layer3.0.weight f4 [64, 64, 3, 3]
000000 99 b6 83 bb 58 f5 b7 bd a5 61 0e bf fd 5c 22 bf
       -0.00401957 -0.089823425 -0.55617744 -0.6342314
000010 7c 54 c2 be d9 fe 19 bf a0 41 da bd 8c ca 45 be
       -0.3795508 -0.6015449 -0.10657048 -0.19315547
000020 29 97 0f bf 1d 87 c6 bd a2 50 30 be d1 3e 4f bd
       -0.5609003 -0.096937396 -0.17218259 -0.050597016
000030 0d 35 dc 3e 90 73 88 3f f2 cd 9d 3e 90 ea 00 bf
       0.43009225 1.0660267 0.30821186 -0.50357914
000040 4a 6c 8e 3d f6 81 9f be ed 44 8d be bd c7 23 3f
       0.06954248 -0.3115384 -0.2759165 0.6397665
000050 aa e0 35 be a1 a6 1f 3e 84 46 6f 3f d6 6f 0f 3f
       -0.17761484 0.15590908 0.93466973 0.56030023
000060 c0 1e d7 bc d9 f7 34 3f 70 4a 9a 3e ab b0 54 3e
       -0.02625978 0.70690686 0.30134916 0.20770518
000070 2e 63 51 3e 26 b3 db 3d dd 85 45 bf 4b d3 d1 bd
       0.2044799 0.10727529 -0.77157384 -0.10245379
000080 51 eb aa be 8b 02 df be b6 44 57 bf 00 fb e8 3d
       -0.33382657 -0.43556628 -0.8408922 0.113759995
000090 d3 b0 93 3e 8f c1 61 3f a2 14 3e 3f 8b 84 e4 3c
       0.28845844 0.8818597 0.74250233 0.027895233
0000a0 23 8c cd 3e a1 b1 12 3f 6c 6c 77 bf 9b bc a2 bf
       0.40145978 0.5730229 -0.96649814 -1.2713808
0000b0 8a 64 ce be 1c 0f 1c 3d e7 1b 1a 3f b3 71 bc 3e
       -0.4031108 0.038100347 0.60198826 0.36805496
0000c0 ab fc 32 3f 0e 5d 81 3f 5d e7 73 3f 01 aa 19 3f
       0.6991679 1.0106523 0.9527491 0.6002503
0000d0 ef c8 63 3f 6d db 1e 3f b8 ed ca be d2 78 bd be
       0.88978475 0.6205357 -0.3963449 -0.3700624
0000e0 51 8e 0c bc 3f 2c 0e be c9 c8 20 be 03 c0 bb be
       -0.008578853 -0.13884066 -0.15701593 -0.3666993
0000f0 0e 74 10 3e af 51 45 bf 95 6d 44 bf ad f8 fd bc
       0.14106771 -0.77077764 -0.7672971 -0.031002367
000100 91 70 75 3e ec 43 d2 bd c4 6a 10 bf 51 a9 d2 3d
       0.23968722 -0.10266861 -0.5641291 0.10286201
000110 10 c7 eb 3e f0 b5 98 bf 19 ea 3f bd a2 34 3f 3f
       0.4605031 -1.1930523 -0.046854112 0.74689686
000120 ab 0a 09 3f 0c 44 10 bf 4e 8d b4 bf ef 31 64 3f
       0.53531903 -0.5635383 -1.4105623 0.8913869
000130 b4 5d 21 3f d6 4a 11 3e da 90 10 be b2 96 ef 3e
       0.63033605 0.14188704 -0.14117756 0.4679466
000140 d3 b5 75 bd ff ad 2d 3f 0e af ab 3e 90 7b db bd
       -0.059987854 0.6784362 0.33531994 -0.10716927
000150 e4 00 ee bb e8 61 97 3e d8 69 84 3e 38 49 f7 be
       -0.0072632898 0.29566884 0.25862002 -0.4829805
000160 c9 7e ac bd 8e fe ac 3d eb 9a 18 bf 7f 73 e7 be
       -0.0842262 0.0844699 -0.59611386 -0.45205304
000170 f1 b7 42 bf 8d 2c d0 3d 5d ea 09 3f c3 e0 4f be
       -0.7606192 0.101647474 0.53873235 -0.20300584
000180 4d db d6 be b6 ff 0c 3f 25 4b 31 be 2c 3f de 3e
       -0.41964188 0.55077684 -0.17313822 0.4340757
000190 b4 b2 f8 3e 46 a4 09 3f 8c c9 6b bf 37 62 8a be
       0.4857384 0.53766286 -0.9210441 -0.27028057
0001a0 c1 13 66 3e ff 0b 89 bf f4 95 b7 bf b7 f4 20 bf
       0.22468473 -1.0706786 -1.4342637 -0.62873405
0001b0 b8 b0 16 bf 1c b6 81 3e 39 0e 1d 3f 58 0b 2f bf
       -0.588634 0.2533425 0.6134983 -0.68376684
0001c0 7d a6 9c bd 40 cd 00 3f fa 7f 1f bf ac ee 07 3e
       -0.076489426 0.50313187 -0.6230465 0.1327464
0001d0 91 df 82 3e ea 31 43 bf 6d 9c 2c 3b 5e 21 7b 3e
       0.25561193 -0.7624804 0.0026338354 0.24524447
0001e0 bd 5d 38 bf eb 07 4a be 6d ef c5 3e 38 90 c6 be
       -0.72018033 -0.19729583 0.3865923 -0.38781905
0001f0 83 69 43 bf 15 84 1b be 70 7d 2d 3f 0f 9d 9a 3e
       -0.76332873 -0.15187104 0.6776953 0.3019795
000200 ec 3b 12 bf 92 00 7a be 52 94 49 3f 22 d2 71 3e
       -0.57122684 -0.2441428 0.78741944 0.23615316
000210 a3 fb 8b be 98 11 f8 3e 42 36 6d 3e 66 66 0c 3e
       -0.2734042 0.48450923 0.23165229 0.13710937
000220 11 7e ef 3e 45 0a 8c 3e 1f b8 03 be 44 ff b4 3e
       0.4677587 0.27351585 -0.12863205 0.35351002
000230 3b 1f 8a 3e f7 b1 34 bf 79 7f 8a bd a4 ac 1f bd
       0.26976952 -0.7058405 -0.06762595 -0.038983002
000240 3f ac 56 bd 86 91 e4 bc 83 e3 9d 3e 0f 0d de bd
       -0.05241036 -0.027901422 0.3083764 -0.108423345
000250 cf b9 20 3f 14 58 22 3f 9b d9 cf be 4b 32 b4 3e
       0.6278352 0.63415647 -0.40595707 0.3519462
000260 3d 1f e5 3e 35 cd ad be 36 72 f4 bd 8d de e3 bd
       0.44750395 -0.33945623 -0.119358465 -0.111264326
000270 f6 8b b2 3c fa 3f 08 3e 52 e3 16 bf 94 88 40 3e
       0.021795254 0.13305655 -0.58940613 0.188021
000280 66 73 02 be 9f 9e 93 be 3e 70 8f 3d 4a a8 1b bd
       -0.12739334 -0.28831956 0.070038304 -0.03800229
000290 eb f1 04 3f 0f 6b 16 bf 7c b7 86 bf 7c 91 5d bd
       0.5193164 -0.5875711 -1.0524745 -0.054093823
0002a0 77 d8 85 3e 96 78 15 bf 69 38 9d bd 9b e5 0a 3d
       0.26141712 -0.58387125 -0.07676775 0.033910375
0002b0 cb af 71 3e 28 82 ab 3e 85 55 d7 3e 43 db 23 3f
       0.23602216 0.3349774 0.42057434 0.6400644
0002c0 56 ce 82 3e 94 33 57 be 65 37 3f be 43 f2 f1 be
       0.25548047 -0.21015769 -0.18673475 -0.47255144
0002d0 b3 e7 1c 3e e8 e9 a8 3e 58 9b 4d be 8d c0 cd be
       0.15322761 0.32990956 -0.2007879 -0.40185967
0002e0 36 45 b7 3d 7d 10 15 be a4 9f 24 bf 28 be c0 be
       0.08948748 -0.14557071 -0.6430609 -0.37645078
0002f0 0f 1d ee be 79 9a 46 3e 48 8f f1 3c 5e b4 4c 3e
       -0.46506545 0.19394864 0.029487267 0.1999068
000300 1d 73 10 3f 2a e8 12 3f 59 c6 12 3f 5d b2 4f 3f
       0.5642565 0.57385504 0.57333905 0.81131536
000310 8b 8e 4d 3f 6c 56 e9 3e 90 b6 1b be 0b 28 54 bf
       0.8029563 0.45573747 -0.15206361 -0.828736
000320 cf 0f 2c bf 69 e5 85 be c4 81 6b bf 29 05 41 bf
       -0.6721162 -0.2615159 -0.9199488 -0.753985
000330 75 91 43 3e f4 31 53 bf 48 23 20 bf 1a 12 26 3e
       0.19098456 -0.824981 -0.62553835 0.16217843
000340 a7 7a e0 bd 3b 11 cd be f9 fa 14 3f 54 20 1b 3f
       -0.10960894 -0.40052208 0.58195454 0.60596204
000350 71 19 b1 3d 6b c7 8c be 68 d3 bd 3e 20 35 82 bd
       0.08647431 -0.27495894 0.37075353 -0.06357789
000360 d3 ac 0f 3f c9 75 28 3f af c2 5b 3e 4e 7c 1a 3f
       0.56123084 0.65804726 0.21460985 0.60345924
000370 bd 50 60 3f ef 66 d1 3e e3 03 c3 be 8e c4 d3 3e
       0.87623197 0.40898845 -0.38088903 0.41360897
000380 84 e1 4d be 73 5d fc 3e 91 64 43 3f 12 43 af 3e
       -0.20105559 0.49290046 0.7632533 0.34230858
000390 8b cc d2 bf e5 42 09 3e 99 bd f3 3c e9 a9 d5 3e
       -1.6468672 0.13404424 0.029753493 0.41731194
0003a0 78 5b 61 3f 38 4a 31 3f 56 d1 93 be 43 23 8c bd
       0.88030195 0.69253874 -0.28870648 -0.06842663
0003b0 40 0c 24 bd b8 40 3a 3e 54 86 1d 3f 0f 21 0e 3f
       -0.040050745 0.1818875 0.61533093 0.55519193
0003c0 3e 9f 56 be f0 b2 8f 3b 9a 6a 31 bf d1 6b 1a bf
       -0.20959184 0.0043853447 -0.69303286 -0.60320765
0003d0 78 25 53 be 37 4c 56 3e df f7 59 bf ca 86 21 3d
       -0.20619762 0.20927511 -0.85143846 0.039435185
0003e0 0f ee a2 bd 43 36 5b be 8a ef d0 be 60 b7 20 3e
       -0.07955562 -0.21407418 -0.40807754 0.15694952
0003f0 bf 11 6a bf f6 46 aa bd 38 d5 96 3e 92 f5 8e bf
       -0.9143333 -0.08314316 0.29459548 -1.1168692

layer3.0.bias f4 [64]
000000 41 3a 94 41 9d b4 a9 41 4d f8 b5 41 83 6e 99 41
       18.528444 21.21319 22.74624 19.17896
000010 b2 28 b8 41 6c c3 a9 41 c6 a7 aa 41 b3 94 a8 41
       23.01987 21.22042 21.33192 21.072607
000020 48 fc ad 41 6b 45 b1 41 0a 15 95 41 12 ea b1 41
       21.748184 22.158895 18.635273 22.239292
000030 63 c8 a7 41 37 eb b7 41 85 dd ae 41 64 b3 c9 41
       20.972845 22.989851 21.858164 25.212593
000040 12 ae a3 41 cb 9c b8 41 a3 67 cf 41 dc 37 a8 41
       20.459995 23.07656 25.925604 21.027275
000050 63 1e a6 41 54 8b c2 41 4d fd a5 41 1a 53 9d 41
       20.764837 24.318031 20.748682 19.665577
000060 0f 0c cf 41 69 cf b9 41 56 39 f1 41 c3 f7 a3 41
       25.880888 23.226274 30.152996 20.495977
000070 50 dc a9 41 1e 89 ad 41 32 c1 ca 41 b9 a6 a5 41
       21.232574 21.691952 25.344334 20.706408
000080 a3 53 af 41 02 a0 c4 41 5c 5e 8f 41 18 e2 cc 41
       21.915838 24.578129 17.921074 25.610397
000090 8c 5c 97 41 3b 18 df 41 c5 91 94 41 46 e0 8f 41
       18.920189 27.886831 18.571177 17.984509
0000a0 75 f6 a1 41 f8 79 a7 41 33 f6 c0 41 15 a2 b1 41
       20.24534 20.934555 24.120214 22.204142
0000b0 76 d6 9f 41 b9 17 ac 41 f4 13 dd 41 ff a9 97 41
       19.979717 21.511583 27.634743 18.958006
0000c0 38 fb a5 41 3f 78 b0 41 49 be ae 41 fc fe a0 41
       20.747665 22.058714 21.842913 20.124504
0000d0 14 2c d0 41 5c 79 ba 41 20 ba df 41 33 d7 aa 41
       26.021523 23.309258 27.965881 21.355078
0000e0 46 6d a0 41 a7 47 9e 41 36 55 a9 41 8f 44 bf 41
       20.053356 19.784986 21.166607 23.908476
0000f0 32 2f b8 41 4a 12 b8 41 3b f9 ab 41 33 42 90 41
       23.023045 23.00893 21.496695 18.032324

layer3.1.weight f4 [64]
000000 25 7b 8b 3f bf a0 7e 3f c1 9b 87 3f 8c 5b 6e 3f
       1.0896956 0.9946403 1.0594407 0.9310844
000010 a1 93 84 3f fc 8a 32 3f c3 ea 7c 3f 9b 48 63 3f
       1.0357553 0.69743323 0.9879572 0.8878266
000020 08 b5 59 3f e8 3e 82 3f 10 b2 43 3f f2 d6 a5 3f
       0.85041857 1.0175447 0.76443577 1.2956221
000030 92 e8 a3 3f 76 8a b6 3f 64 42 89 3f d0 24 83 3f
       1.280535 1.4261005 1.0723386 1.0245609
000040 82 63 80 3f 4c 4c 82 3f 45 d8 a8 3f 70 ed 37 3f
       1.0030367 1.0179534 1.3191 0.71846676
000050 3c ea 37 3f 06 dd 89 3f d0 ce 56 3f 0e 89 85 3f
       0.7184179 1.0770576 0.8390932 1.0432451
000060 31 c3 98 3f 9d 67 80 3f 48 c1 d4 3f 27 53 88 3f
       1.1934568 1.003162 1.6621485 1.0650376
000070 7b 77 73 3f 2f ae 89 3f 69 2b 9a 3f 3b b0 85 3f
       0.9510419 1.0756282 1.2044498 1.0444406
000080 e6 9a 9d 3f 6a ec aa 3f 5b fe 6e 3f 15 17 8b 3f
       1.2312896 1.3353398 0.93356866 1.0866419
000090 1b 86 a0 3f 05 8a af 3f 68 75 3f 3f f5 6d 76 3f
       1.2540926 1.3713995 0.7478852 0.9626153
0000a0 58 a5 7c 3f 90 62 73 3f 8d 42 89 3f 9a c9 a5 3f
       0.98689795 0.9507227 1.0723435 1.2952149
0000b0 ce b9 66 3f 10 de bd 3f 01 ea a3 3f 01 cd ab 3f
       0.90127265 1.4833393 1.2805787 1.3421937
0000c0 b4 6b 93 3f ee c8 7e 3f 11 f3 83 3f 28 73 56 3f
       1.1517243 0.99525344 1.0308553 0.83769464
0000d0 e9 14 a5 3f 9d 7a a3 3f 1e 83 b6 3f 09 69 4e 3f
       1.2897006 1.2771794 1.4258764 0.8062902
0000e0 07 ff 59 3f d3 fa 78 3f 1d e6 51 3f 8c e3 9e 3f
       0.85154766 0.9725773 0.8199175 1.2413192
0000f0 73 ea 99 3f 02 a4 97 3f 72 f3 57 3f 31 4a 86 3f
       1.2024673 1.1846926 0.84355843 1.0491391

layer3.1.bias f4 [64]
000000 77 7a 32 bf d7 1c 33 bf 3c 3e e0 be 71 ac 1f bf
       -0.69718117 -0.6996588 -0.4379748 -0.623725
000010 81 66 12 bf a7 5d 55 be 22 60 2c bf 55 ec f8 be
       -0.5718766 -0.20836507 -0.6733419 -0.48617807
000020 4e 90 78 be e2 8e e4 be c9 1e ed be f1 63 3d bf
       -0.24273798 -0.4464026 -0.4631255 -0.73980623
000030 21 71 49 bf c4 87 4e bf 3d e7 01 bf 19 a7 34 bf
       -0.78688246 -0.8067591 -0.50743467 -0.7056747
000040 64 55 cc be 44 3a f9 be 08 8a 14 bf 43 a1 89 be
       -0.39908898 -0.48677266 -0.5802312 -0.26880845
000050 0e 7e c9 bd 4f 0c 51 bf 29 5c 6e be f8 24 24 be
       -0.09838496 -0.81659406 -0.23277344 -0.16029727
000060 31 1a 53 bf 80 a6 13 bf 16 46 42 bf 2a 85 b8 be
       -0.8246184 -0.57675934 -0.7588819 -0.36039096
000070 96 e8 d0 be 65 c8 25 bf 34 7a 14 bf c0 85 fe be
       -0.4080245 -0.647589 -0.5799897 -0.49711418
000080 dd 30 a3 be 1f c2 5f bf b8 4d c1 be 1e 59 3b bf
       -0.31873217 -0.8740558 -0.37754607 -0.7318286
000090 4e e8 34 bf ef 31 5f bf 85 74 b2 be 66 99 63 be
       -0.7066697 -0.8718557 -0.34854522 -0.22226486
0000a0 1c 3f 2e bf 65 a9 40 be 61 22 cd be 22 35 4f bf
       -0.6806505 -0.18814619 -0.40065292 -0.8094045
0000b0 f4 af c2 be 6d ac 74 bf 03 b6 3f bf 58 10 53 bf
       -0.38024867 -0.955756 -0.748871 -0.82446814
0000c0 74 0a 13 bf a1 66 1b bf 68 c5 40 bf f5 2a d3 be
       -0.57437825 -0.60703474 -0.7530122 -0.4124371
0000d0 c1 d6 68 bf d6 1e 21 bf 48 df 40 bf 52 50 67 bd
       -0.9095269 -0.62937677 -0.753407 -0.056473084
0000e0 13 5a b3 be 7e 33 8f be be c7 02 bf 6f c0 26 bf
       -0.3502966 -0.27968973 -0.5108603 -0.6513738
0000f0 d2 87 21 bf d5 5e 1e bf a0 f2 87 be d8 02 a4 be
       -0.6309787 -0.6186345 -0.26552296 -0.3203342

layer3.1.running_mean f4 [64]
000000 ea e1 22 41 dd 21 40 41 51 3e 83 41 76 4e 28 41
       10.180155 12.008267 16.405428 10.5191555
000010 71 cc 7b 41 97 f5 00 42 9a 8f b2 3f 77 db 02 41
       15.737412 32.239834 1.3950074 8.17858
000020 5e db c6 41 f5 94 19 41 fb 4b 07 41 82 46 cc 40
       24.857113 9.598866 8.45605 6.383607
000030 b1 6f a1 40 ec 99 df 40 1e 16 3f 41 c6 ae a5 41
       5.044884 6.9875393 11.9429 20.710339
000040 75 37 0c 41 5e d9 5e 41 69 e9 68 41 53 c6 92 41
       8.763539 13.928068 14.556985 18.346838
000050 4a ef 2c 41 df f8 98 41 8a 0e 5d 41 73 4e 23 c1
       10.80842 19.12152 13.81605 -10.206653
000060 05 49 9f 41 9d 2b 80 41 85 3d 5a 41 c7 5f 9e 3f
       19.910654 16.021296 13.640019 1.2372979
000070 dc 78 a8 41 1d 69 2b 41 e9 27 9d 41 06 98 f4 40
       21.059013 10.713162 19.644487 7.6435575
000080 b5 84 23 41 c1 0b ab 41 ae 08 1e 40 3f c2 b1 41
       10.219899 21.38074 2.4692798 22.219847
000090 2e 5f 86 40 ed 54 ac 41 fc c8 36 41 88 43 c9 c0
       4.1991186 21.541468 11.424068 -6.2894936
0000a0 9c 10 61 41 0e 1f 33 41 9c 89 2e 41 d0 70 39 bf
       14.066555 11.195082 10.908596 -0.72437763
0000b0 bf d4 12 41 82 8a b2 40 ee 91 d0 41 51 c6 1a 40
       9.17694 5.5794077 26.071255 2.4183543
0000c0 56 75 61 41 99 ed 29 41 c5 3d 29 41 74 b7 0a 42
       14.091146 10.620507 10.57758 34.679153
0000d0 fd 55 8d 41 07 06 0d 41 ea 21 af 41 1d 40 29 41
       17.666986 8.8139715 21.89156 10.578153
0000e0 03 5d 50 41 97 a0 de 40 76 a3 aa 41 da b8 f8 40
       13.022708 6.9571033 21.329815 7.772565
0000f0 00 8e 06 41 d4 22 c3 40 1a 83 b5 41 d2 ce 20 41
       8.409668 6.0980015 22.689014 10.050493

layer3.1.running_var f4 [64]
000000 60 d3 28 43 7f 90 32 42 e8 77 6a 42 8f fe 94 42
       168.82568 44.64111 58.617096 74.497185
000010 92 02 ed 42 29 c3 db 42 b3 f9 a7 42 8e b2 a1 42
       118.50502 109.88117 83.98769 80.84874
000020 8b 0f f8 42 4b f2 c3 42 1c c2 98 42 73 e7 fb 42
       124.03036 97.97323 76.37912 125.95205
000030 05 9b 25 43 0f 31 06 43 45 45 02 43 5c c0 4b 42
       165.60555 134.19164 130.27058 50.93785
000040 a5 96 22 43 af 05 af 42 58 42 a0 42 0d c3 d6 42
       162.58846 87.5111 80.12958 107.38096
000050 10 33 16 43 b6 4b 87 42 c4 f0 cd 42 41 d4 8f 43
       150.19946 67.64787 102.970245 287.65823
000060 dc 4b 6e 42 b2 01 82 42 d6 05 bc 42 96 b4 3f 43
       59.57408 65.00331 94.0114 191.70541
000070 a9 e9 8a 42 95 5d 6d 42 55 bc af 42 a2 0a 0b 43
       69.45637 59.34139 87.867836 139.04153
000080 0e 82 22 43 3a 9b 9e 42 ad e3 08 43 28 13 8a 42
       162.50803 79.30318 136.88936 69.037415
000090 4d be 1d 43 1a b2 55 42 cf ed 66 42 22 3b 29 43
       157.74336 53.423927 57.732235 169.23099
0000a0 1a f4 ac 42 a9 ee 47 43 e6 e7 b7 42 8b 2e 2e 43
       86.47676 199.93227 91.95293 174.18181
0000b0 99 bd b9 42 57 66 bb 42 14 f1 80 42 fe 86 1e 43
       92.87031 93.69988 64.470856 158.52731
0000c0 da 50 b8 42 a0 2f 79 42 2c fb 68 42 e3 b8 9a 42
       92.15791 62.29651 58.245285 77.36111
0000d0 6f f8 72 42 6d 2e e5 42 50 ea 9a 42 b3 f6 03 43
       60.74261 114.590675 77.45764 131.96367
0000e0 d3 f7 ea 42 1a 29 46 43 53 05 85 42 88 ff ed 42
       117.48403 198.16055 66.5104 118.999084
0000f0 69 06 94 42 7c 0d 0e 43 1e 52 d5 42 9b 19 89 43
       74.01252 142.05267 106.660385 274.20004
