miniimagenet_relation_network_2way_1shot.pkl (torch, 470518 bytes, 15 tensors)

layer1.0.weight f4 [64, 128, 3, 3]
00000000: 1acf 273e 0368 4abe 15db 5ebf eb10 333f
00000010: eb06 54be 1495 f7be de1e 293e df9c b93d
00000020: 25d2 b7bc d591 a03c b738 c83d 59fa 79be
00000030: c49b c1be a02c d7be 1f21 6abf 6b14 36bf
00000040: 151d 70bf 0b4d 85bf 4720 29be ad5c e8bd
00000050: aba9 dfbe 6c46 92be 443f 40bd 92bb 04bf
00000060: f78f 1bbf 4117 ebbe bb19 00bf fd0f 123d
00000070: 8cfd c53d eb60 963e 8008 5b3e c7fd e63d
00000080: 6cbb 9e3e 52fd 1b3f 100a fb3e 2453 f33e
00000090: 6a57 84bf 2041 53bf ec77 72bd 4b62 81be
000000a0: eb1e 78bd 981b d63e 1c65 1f3f efc1 643f
000000b0: d141 e03f 31e1 6b3e a047 c73e 9755 473d
000000c0: a308 a3be f0d0 263e 0a20 06be 5cfa d1be
000000d0: 500c 2cbf 0068 16bf b162 8c3d 456a 803e
000000e0: 1c0b cd3e 77d2 8e3d 3286 6c3e 5a51 7aba
000000f0: 3707 2a3f 28cd 353f e844 783e 755e a83e
00000100: 5a65 c83d 3820 d3be 378e 6c3e 7a6d 0b3e
00000110: 4210 36be 5cea 27bf c685 09bf cf14 0abf
00000120: fc64 053e ffd3 1ebe 1af5 d8bc 3be9 b73e
00000130: 5723 b23e d871 313e bde9 9cbe 07da 30bf
00000140: 141a 7abf 6e36 6e3f 51df ac3e d65e 0d3f
00000150: eeeb 163e 97c3 363e 9d48 b63e 0816 4f3f
00000160: b57e 343f 1bf3 313f 2860 223c ae58 71be
00000170: 5e0d 37be 9cc7 243e a6dd c1be 48b3 74be
00000180: be22 763f 5c41 2c3f 2d8d 9b3f 55f7 32bf
00000190: 874b 2cbe fcfe 15be 0925 8dbf a7b2 2cbf
000001a0: 0dd6 08bf 2184 553e 4217 403f a237 883e
000001b0: 85dd babd 1228 3dbe d8d4 3ebe 11ee 88bd
000001c0: 66f4 ba3e 1839 de3d 2943 7abf e0d9 54bf
000001d0: 6eef 7cbf ec1e 46be 9f27 94bd b241 b3be
000001e0: 10a1 53be d0dc 14bd 5080 f1bd 113a 64bd
000001f0: 11ba ef3e c990 133e 80ae a53e 576d 87be
00000200: 077c c9be 42d4 c53d 1ab0 44be 8159 d2be
00000210: d021 52be b643 24bd 4a43 17bf 1362 a4bd
00000220: cd0b 81be 765d 1d3d 1623 4f3e 2398 5e3b
00000230: 530f e73d eaa7 2cbe b9fd bebe 3047 8cbe
00000240: b4f5 2cbf e19c 1f3e 19f8 213f 3f07 10bf
00000250: a54c 0d3f fb37 2f3f 78c3 0a3f 7870 7c3f
00000260: 6b9b c63f 0e33 10bf 2ae6 03bc c0cf 893e
00000270: 9cd4 81bf 5292 79be 6c7a 163e 6791 013f
00000280: 25d2 213f 28d3 ae3f d0a5 363e a191 a23e
00000290: 5337 973d 502f b93e 6310 ba3c 4420 65bd
000002a0: 3b97 143e 0b84 b93d d0e3 9cbd 69d6 f13c
000002b0: 39ac 3b3e 16a6 03bf 6599 613e bf54 f33e
000002c0: 2c6a 18be b4a5 0a3e 6aed 843e f2e5 0c3e
000002d0: cf72 d53e eaf5 0d3f 0ab5 573e 2895 563e
000002e0: b714 9d3c 1790 f8be 78e3 24be 7d74 29be
000002f0: 2aeb fabd 5c28 51bf d48e f1be 4f14 26bf
00000300: 7820 7fbf fd06 adbe 9483 4bbf 61cc 64bf
00000310: 4cee 32bf fd07 97bf 6740 a83e c59f 1fbe
00000320: 4d67 8fbe 202b c93e 3341 f13d 87c9 64bd
00000330: 827f 11bf f6c9 0fbf 27e7 49bf 37a3 ccbe
00000340: 84aa 16bf fcc8 6e3e 1bca c13d 936e f6bd
00000350: 42dd 393f 791d 6dbe a32e 8ebe 1ab4 a53d
00000360: 59f6 c33c a234 853e caf0 34be 6742 0cbf
00000370: e5cc 8d3c 8cf8 66bd f912 b1be 3e63 22bd
00000380: f04c 293d 2941 bdbe 2a20 95be e6f0 433e
00000390: 2d24 85be 48ed f6be f71b bfbd 27a3 313f
000003a0: 8a50 153f 1738 603f 785d 383e a18c d43d
000003b0: 7c8e a73e b0ff eb3e 3efb 073e 229b 3c3d
000003c0: bf56 0a3f f34e f4bc ef1a 29be e1dc 483e
000003d0: c3d0 38bd 9199 f7bd 894d cabe d7a9 8fbe
000003e0: 9648 95bd 11eb 703b cdc1 883e 8460 253e
000003f0: 5c8a de3e 17c0 f73e cb19 8c3e c763 013e
0.16387597 -0.1976624 -0.8705304 0.6994769 -0.20705764 -0.48355925 0.16515681 0.09063124
-0.022439072 0.019600788 0.097764425 -0.24411906 -0.37814152 -0.42026234 -0.9145679 -0.71124905
-0.93794376 -1.0414137 -0.16516219 -0.113458015 -0.43684134 -0.28569353 -0.046935335 -0.5184871
-0.6076655 -0.4591618 -0.5003926 0.03565978 0.09667501 0.29370818 0.21389961 0.11278873
0.31002367 0.6093341 0.49031115 0.4752437 -1.0339177 -0.8252125 -0.059196398 -0.25270304
-0.06057636 0.41817927 0.62263656 0.8935842 1.7520086 0.23035122 0.38921833 0.04866561
-0.31842527 0.16290641 -0.1309816 -0.41011322 -0.6720629 -0.5875244 0.068547614 0.25081077
0.40047538 0.06973737 0.23098066 -0.00095488655 0.6641726 0.7101617 0.24245036 0.32884565
0.09784956 -0.41235518 0.23101126 0.1361598 -0.1777964 -0.6559198 -0.5371975 -0.53938
0.13026804 -0.15510558 -0.026484061 0.35920128 0.34792587 0.17328584 -0.30647078 -0.69082683
-0.9769604 0.93051803 0.33764127 0.55222833 0.14738438 0.17848049 0.35602275 0.8089299
0.7050584 0.69511575 0.009910621 -0.23568985 -0.17876193 0.1609177 -0.37864417 -0.23896515
0.9614676 0.6728723 1.2152458 -0.6990865 -0.16825686 -0.1464805 -1.1026927 -0.674601
-0.53451616 0.20851184 0.7503549 0.26604944 -0.09124283 -0.18472317 -0.18635881 -0.066860326
0.36514586 0.108507335 -0.9775873 -0.8314495 -0.9880284 -0.19347733 -0.072341196 -0.3501106
-0.20666909 -0.036343396 -0.11792052 -0.05571944 0.46821645 0.144107 0.32359695 -0.26450607
-0.39352438 0.096596256 -0.19207802 -0.4108391 -0.20520711 -0.040103637 -0.5908705 -0.08026519
-0.25204316 0.03841921 0.20228228 0.0033965192 0.1128222 -0.16860929 -0.3730295 -0.27398062
-0.67562413 0.15587188 0.6326919 -0.56261057 0.55195075 0.68444794 0.5420451 0.98609114
1.551618 -0.56327903 -0.008050481 0.26916313 -1.0143008 -0.24372223 0.14695138 0.5061249
0.6321128 1.365819 0.1783669 0.3175173 0.07383599 0.3616891 0.022712892 -0.055938974
0.14510815 0.09058388 -0.07660639 0.029521184 0.18327416 -0.514253 0.22031172 0.47525594
-0.14884251 0.13539773 0.25962383 0.13759592 0.41689155 0.5545336 0.21065155 0.20955336
0.019174917 -0.48547432 -0.16102397 -0.16548343 -0.12251885 -0.8170221 -0.47179282 -0.6487474
-0.9965892 -0.33794394 -0.7949765 -0.8937436 -0.6989486 -1.1799313 0.32861635 -0.15588291
-0.280085 0.39290714 0.11780014 -0.055856254 -0.56835186 -0.5616754 -0.78868335 -0.39968273
-0.58853936 0.23318857 0.09462377 -0.12032809 0.7260324 -0.23155774 -0.27769956 0.08090992
0.023921179 0.26016718 -0.17669979 -0.5478882 0.017309615 -0.056389377 -0.34584787 -0.039645426
0.04133314 -0.36963776 -0.29126102 0.19134864 -0.26004162 -0.48227906 -0.09331506 0.69389576
0.5832602 0.87585586 0.18004405 0.10378385 0.32725894 0.46093512 0.13279435 0.046046384
0.54038614 -0.029822802 -0.1651418 0.19615509 -0.045120966 -0.12089837 -0.3951228 -0.28059265
-0.07289235 0.0036761204 0.26710358 0.16150099 0.43464935 0.4838874 0.27363428 0.12635718

layer1.0.bias f4 [64]
00000000: 68db 1d41 5f92 1341 8ec3 0d41 2f6e 1241
00000010: 65b3 1c41 f14c 1641 524f 1841 5e40 1e41
00000020: c741 1a41 a52f 1241 b3cb 0c41 0ce3 1641
00000030: b11a 0b41 73c8 1e41 3af4 1141 9e13 1d41
00000040: b1cf 1541 d673 1341 e6dc 1641 9739 1841
00000050: 1915 1e41 d187 1341 f96d 1941 b064 1f41
00000060: 71bd 0541 a4dc 1041 fc24 2041 a3c8 1941
00000070: 143c 1a41 a50c 1041 4f7f 1c41 6a7a 1b41
00000080: 29bb 1a41 2654 1941 5347 1e41 f809 1941
00000090: 3860 1e41 8389 1d41 d12d 0c41 5900 1c41
000000a0: 8d64 1441 e5e5 1741 3537 1741 591b 1641
000000b0: 1b08 1941 ee97 0c41 9d99 1241 47f1 1b41
000000c0: 47eb 1741 d18e 1541 e904 fd40 09c6 2341
000000d0: 50ef 1341 b86d 1641 6021 1841 a445 1c41
000000e0: aa8b 0d41 47db 2241 b012 1f41 851d 1841
000000f0: 50bb 1941 1dde 0f41 0802 0f41 9370 1541
9.866066 9.223235 8.860243 9.1519 9.7937975 9.3937845 9.519365 9.890715
9.641059 9.136632 8.799731 9.430431 8.694016 9.923938 9.122126 9.817289
9.363206 9.21578 9.42893 9.51406 9.880151 9.220658 9.589349 9.962082
8.35875 9.053867 10.009029 9.611484 9.6396675 9.003087 9.781081 9.717386
9.670693 9.583044 9.892413 9.564934 9.898491 9.846072 8.761186 9.750085
9.274549 9.493627 9.450978 9.381677 9.564479 8.787092 9.162503 9.746406
9.494941 9.347367 7.9068494 10.235848 9.245926 9.401787 9.508148 9.767002
8.846598 10.1785345 9.942062 9.507207 9.608231 8.991727 8.937996 9.339984

layer1.1.weight f4 [64]
00000000: 7731 8c3f 99bf 593f e1bf 6e3f 8dc9 803f
00000010: 6a8f 8e3f e551 7a3f 3a08 ad3f 7a5a 7a3f
00000020: 4249 923f 9a9c c03f 551e 8f3f 07c6 773f
00000030: 06dc 8f3f be65 813f de52 7f3f 9733 883f
00000040: 696c 563f c7cb 9a3f 4e49 573f 5d64 873f
00000050: 18e8 8e3f daea 983f df4d 953f da34 563f
00000060: 3b62 913f 1435 733f f97c f53f 6e83 913f
00000070: 8105 8e3f d1a4 893f 92cb 813f 2944 ac3f
00000080: cac4 903f e797 a33f 2744 693f 96bf 893f
00000090: a2dc 9a3f ce51 863f d72c 873f 5eb3 c93f
000000a0: 88bc 443f 63d4 a53f eb6a 843f 7b3b 883f
000000b0: cf73 873f f037 3e3f c9cc 613f d42c 6f3f
000000c0: 79fd 603f 8e0b a93f c3bb 573f e2dc 563f
000000d0: 0b1a 683f 800e 883f 37ba 963f 3c38 853f
000000e0: 0ff7 863f 3508 4b3f a7ab 8b3f 0edb af3f
000000f0: 1f48 a13f 4df0 9a3f 9b8f 983f e35b 813f
1.0952595 0.8505798 0.93261534 1.0061508 1.1137516 0.9778121 1.3518136 0.97794306
1.1428607 1.5047791 1.1181132 0.9678654 1.1239021 1.0109174 0.9973582 1.0640744
0.8375917 1.2093438 0.8409623 1.0577503 1.1164579 1.1946671 1.1664389 0.83674395
1.1358103 0.95002866 1.9178764 1.1368234 1.109543 1.0753423 1.014025 1.3458301
1.1310055 1.2780732 0.9111962 1.0761592 1.2098582 1.0493715 1.0560559 1.5757864
0.76850176 1.295544 1.0345129 1.0643152 1.0582217 0.74304104 0.882031 0.9342778
0.8788677 1.3206651 0.84270877 0.8393079 0.9066474 1.0629425 1.1775578 1.0407786
1.0544146 0.793094 1.0911759 1.3738725 1.2600135 1.2104584 1.1918825 1.0106167

layer1.1.bias f4 [64]
00000000: 0570 70bc 307b 9bbe b31b 1ebf 8079 623e
00000010: b032 3cbf ab8b 28bf 8394 03bf 3950 bbbe
00000020: bd4b 58bf 1ff0 4cbe b9f9 35be 6b0f 1cbf
00000030: 8a36 10bf 1bb9 a03d 175b 5fbf 4c86 88be
00000040: 7114 93bf f995 31bf 16a8 22bf d09e 2abf
00000050: 0d14 c2be fde2 15bf f537 87be 5cac 62be
00000060: ca88 7fbf e6a6 e3be 65d6 89be 16a5 29bf
00000070: 74b1 183e 4aa4 26bf 5c40 0ebf 619c 4bbf
00000080: ec53 37bf a165 26bf 4d0a 0cbf ed7e 37bf
00000090: 8a89 2dbf ef43 2dbf 2e91 f7be 70df 8fbe
000000a0: 968f 9ebe e762 46be e0bf 2dbf 6087 23bf
000000b0: ab44 28bf 1c5c 2fbf 8e5a 08bf e157 e1be
000000c0: 1690 193d 97a8 ebbe da9c e5bd 849b 013e
000000d0: cca9 d0be ad9f c4bd aea0 01bf c08c 10bf
000000e0: b391 2fbf a2d8 203d e89a 3fbf 14a6 8bbe
000000f0: ced0 f6be 5919 40bf 55e3 5ebf 56f9 0fbf
-0.014675145 -0.30367422 -0.61761016 0.22116661 -0.73514843 -0.65838116 -0.51398486 -0.36584643
-0.8449057 -0.20013474 -0.17771043 -0.60961026 -0.5633322 0.07847806 -0.8724837 -0.2666496
-1.1490613 -0.69369465 -0.6353773 -0.6664858 -0.37905923 -0.5854948 -0.2640988 -0.22136062
-0.998181 -0.4446327 -0.26921383 -0.66267526 0.14911443 -0.65094435 -0.55566955 -0.7953549
-0.7161243 -0.64998823 -0.5470322 -0.7167805 -0.6778799 -0.67681783 -0.4835295 -0.28100157
-0.30968922 -0.19373666 -0.67870903 -0.6387844 -0.6572978 -0.6849992 -0.53263175 -0.4401236
0.037490927 -0.4602706 -0.11211558 0.12656981 -0.40754545 -0.09600768 -0.506358 -0.5646477
-0.68581694 0.039269097 -0.74845743 -0.27275145 -0.4820618 -0.7503868 -0.8706563 -0.5623983

layer1.1.running_mean f4 [64]
00000000: 3ff9 0741 e98c 5340 7dcc 063f 7aa8 3841
00000010: e1a7 1ac0 0803 2abf 1c19 5241 13a5 1d40
00000020: 239d 91c0 adec a441 8428 c940 ec0f 03c0
00000030: 8de8 fbc0 27fb b040 f8dc 8bc0 f1ea d2c0
00000040: 4d53 5041 2d2c 1540 4789 18c0 0345 b8bf
00000050: f765 0341 9a9f 8a3f 209b 1f41 808a 1940
00000060: f093 edc0 1025 c6c0 d869 6341 fea6 1fc0
00000070: 60ec a8bf 09b5 20c0 53c4 4c40 56b5 90c0
00000080: f498 8440 9cba 86be 0141 e43f b564 56c0
00000090: b6b5 b4bf 3a63 6fc0 cfc8 3d40 2831 1341
000000a0: 7ef7 03c0 58b1 2a41 4be7 79bf dcf0 c03f
000000b0: cfc7 81c0 3eb5 a8bf 368d 23bf cf49 8f40
000000c0: 3cb1 8d41 3445 673f 3944 f1c0 adcd e340
000000d0: 3147 21c0 2b94 6740 49c2 6e41 a02b 8c3f
000000e0: 2d0f 33c0 46c0 7e41 0ee8 3d41 816e b840
000000f0: 2cc9 a440 f18d 4bc0 e6bb 02c1 1a37 8c3f
8.498351 3.3054755 0.52655774 11.541132 -2.4164965 -0.66410875 13.13113 2.4632003
-4.5504317 20.615564 6.2861958 -2.0478468 -7.8721375 5.5306582 -4.3707237 -6.5911794
13.020337 2.3308213 -2.3833787 -1.4396061 8.212394 1.0829957 9.975372 2.3990784
-7.424309 -6.192024 14.213341 -2.4945674 -1.3197136 -2.5110495 3.1994827 -4.5221357
4.143671 -0.26314247 1.7832338 -3.3498967 -1.4117954 -3.7404313 2.9653814 9.199501
-2.0619807 10.668297 -0.9761855 1.5073504 -4.0556407 -1.3180311 -0.63887346 4.47776
17.71154 0.9033997 -7.539578 7.118857 -2.5199702 3.6184185 14.922433 1.0950813
-2.7978013 15.921942 11.869154 5.7634892 5.149557 -3.1805384 -8.170874 1.0954316

layer1.1.running_var f4 [64]
00000000: 4830 0543 814c 2143 79e7 8143 b8c1 4643
00000010: 21f8 9d43 2db0 3c43 4ad9 0843 7b97 2243
00000020: dca0 ae43 3093 8043 7954 2743 effa 7343
00000030: 268c 8043 2eb0 2c43 b95b 4143 6e2a 7e43
00000040: ce95 9842 7b52 e843 09b0 4343 52cf a043
00000050: 9515 3b43 e998 8443 3d9b fd42 b40c fc42
00000060: 7c79 ef43 e05a 9f43 b661 1e43 76e3 8a43
00000070: 689b 3b43 8597 c043 62a2 4143 88f8 a343
00000080: ab26 b943 7e60 2f43 b5ee 1043 547f 8e43
00000090: aba0 a443 1f10 a343 cb7b 5e43 5aec a242
000000a0: 9121 0343 f65a d842 2e44 6443 3489 0d43
000000b0: b187 af43 f172 2543 c05a 7243 0f9f 0b43
000000c0: 8843 5843 0baa aa43 c696 4343 b3fb f742
000000d0: 6d9b 6843 c3c7 3843 cf19 2c43 1081 4b43
000000e0: 0fca 6043 f6ce c842 f639 d442 fd78 0143
000000f0: f987 1a43 8f04 ab43 e213 f443 b777 3143
133.1886 161.29884 259.80838 198.75671 315.9385 188.68819 136.84879 162.59172
349.2567 257.1499 167.32997 243.98021 257.0949 172.6882 193.35829 254.16574
76.29259 464.64438 195.68764 321.6197 187.0843 265.1946 126.8032 126.02481
478.9491 318.70996 158.38168 277.77704 187.60706 385.18375 193.63431 327.94165
370.3021 175.37692 144.93245 284.99475 329.25522 326.12595 222.48357 81.461624
131.13112 108.17766 228.26633 141.53595 351.0601 165.44899 242.35449 139.62132
216.2638 341.32846 195.58896 123.9916 232.60713 184.78032 172.10081 203.50415
224.78929 100.40422 106.113205 129.47261 154.53114 342.0356 488.15533 177.46764

layer2.0.weight f4 [64, 64, 3, 3]
00000000: bdb5 6ebe 3702 093e 4c8a c03e b52d c8be
00000010: ac00 b13e 480b 813d d6f9 1abd 816e 8dbd
00000020: 8397 fbbe c132 853e 2c0b 9dbd 7586 0a3e
00000030: 0c4c d33e 09d9 c03e a234 393f a272 963e
00000040: 492c ecbd 076d 713e 80d6 643f 9169 583f
00000050: be73 8c3f c273 28be 35a2 fc3d c25e ff3e
00000060: 4638 e4bc 5931 8a3e 494b 2b3e c734 433f
00000070: f97f 633e c35c e73e e06c fb3e be5a d8be
00000080: cfc7 753d a197 fd3e 995b c33d 0b13 023d
00000090: 1526 1dbf 0486 78bf e60b 65bf ee4a a0bf
000000a0: 27dd 69bf fada b9bf 4d3b c9be 6024 b3be
000000b0: b254 d8be 4428 55be 8be4 d63d 04c5 ef3e
000000c0: 2309 013e 8cbe 9f3e f8a5 0d3f bc0c fbbe
000000d0: 3104 f4bd e765 913d bf55 f03e 4ee0 043d
000000e0: f62a 6e3f 0d93 c73e 3757 20bf ac99 be3e
000000f0: 0c97 54be e0af 01bf 286f 30be aa0b 53bf
00000100: 7f77 0ebf 4783 b2bf 2d53 b4be eeac b1bd
00000110: 44af 87bf 589f 33bf 66b3 12bf 9880 a2bf
00000120: 319c 8f3e 81e3 7dbc 408c eabd a50d 7a3e
00000130: f075 bcbd c658 46be 1a13 e73e bdd3 ad3e
00000140: ff5f cd3d 43e7 953e 2a8d a2bc 0d23 c0be
00000150: 8c2f c7be f1dd b03b b85c e4bd 868a 5a3e
00000160: 908f 013f 6d78 0a3f 967c f0be e984 ccbe
00000170: ca3b 5abf 1906 f2bd 8cbc 1fbf e82a a0bf
00000180: 8caf c73e 89d8 f93d ca2a 86be c073 0bbe
00000190: 8af3 1ebf 6931 3cbd f141 aa3e f6db 3dbf
000001a0: 03a2 a5bd f474 96be 8884 fcbe 6883 3fbf
000001b0: cad0 123e 1ac4 303f 2500 4d3f 5784 253d
000001c0: e482 c2bd f4d7 183f 26e4 cb3e b022 f33c
000001d0: a559 083e 5af2 7f3d 1ea7 02be de0e 8dbe
000001e0: ed3d a1bd 3920 fe3c 5c6d 61be cf57 61bd
000001f0: 00c4 0cbe add7 a43e c427 1abf 012d 25be
00000200: 236c 0b3d c02d b53e 8da3 943f d108 733f
00000210: 9626 5b3e 532e fe3e d634 d23e e692 96bc
00000220: 8df4 743e ce21 2a3e cfa4 1abf c5d7 f8be
00000230: 3905 eebe bf0b a2be cd72 8cbe 733f c5be
00000240: bb26 8a3e ca26 fa3e a1e2 083f 4a99 053f
00000250: 8255 3a3e 41a5 9b3d 0a70 87be e28a 1bbf
00000260: df0d 9cbe bcd0 37be 3ced 953e 963b aebe
00000270: 7fdf ebbe 1afc 25bf a519 efbe fc85 debe
00000280: af24 28bf d575 c6be 4e05 1fbf 3cec 13bf
00000290: 7fd0 11bf a894 3a3e 2ff4 b9be 5a19 b6be
000002a0: 5dc5 ae3d fcac 88be a990 12bf 3b85 463f
000002b0: 8c5a 1c3f 41c4 833f 0f57 993d 06f6 57be
000002c0: cad6 0b3f e47b 263e ccbb 1c3c e882 ce3e
000002d0: e0a5 783e 89ee 04bf 3352 49bc 0255 93be
000002e0: 1978 7fbe 15a7 dabd 37ef c8be a1c2 f6bc
000002f0: cbcd a6bd bc48 2bbf 1928 bebe 0024 60bf
00000300: b654 6d3e c193 e6bd e6a8 79bd 85d1 2d3f
00000310: f291 07be 2f7b a63e 680b 883e a0b0 503d
00000320: fec9 af3e c0c8 4e3f 0f9b 203d 13e7 6c3e
00000330: d684 b13e a22b a9be 916c 3cbf 7824 0e3f
00000340: d76e b53e c54b 953e 7442 033f ed5e 873e
00000350: 8aa1 35bf b057 f73d 0a11 bb3e fa89 f5be
00000360: 647b 2a3e cd96 213f f711 613f 741d f13e
00000370: d979 7d3f 33f1 523f af50 0c3f cbe3 023f
00000380: 8227 f03e ede4 9fbe 83df 3a3e 3b5d bdbd
00000390: 768d 99bd 0fb1 d23d bdec d9be 413d 1b3f
000003a0: 910f 8d3e 8346 bbbe 4e9e 0f3f f55d 9a3e
000003b0: 30cb 383f 8e23 ab3d 2622 023e 61a7 f03e
000003c0: b435 803e f480 2dbd c542 29bb 4cf6 303f
000003d0: 14db 2b3f 63f2 093f b2f9 f93e d9d1 353f
000003e0: 7ced b83e 4633 80bd decc 0fbd 311a 16bf
000003f0: 2124 acbe 18f8 693d 1ff2 bdbd 0375 5bbe
-0.23311515 0.13379751 0.37605512 -0.39097372 0.34570825 0.0630098 -0.03783592 -0.069058426
-0.49139032 0.26015285 -0.076681465 0.13527854 0.41268957 0.37665585 0.72345936 0.29384333
-0.11531884 0.23576747 0.893898 0.8453608 1.0972822 -0.16450408 0.12335626 0.49876982
-0.027858865 0.26990774 0.16727938 0.76252407 0.22216786 0.4518796 0.49106503 -0.4225673
0.060005005 0.49529746 0.09538955 0.031756442 -0.61386234 -0.9707949 -0.8947128 -1.2522867
-0.91353077 -1.4519951 -0.39303055 -0.3498869 -0.42252117 -0.20816141 0.1049281 0.46829998
0.12601142 0.31200063 0.55331373 -0.49033153 -0.11914862 0.070995145 0.4694042 0.032440476
0.93034303 0.38979378 -0.6263308 0.37226617 -0.20760745 -0.5065899 -0.17229903 -0.8243967
-0.55651087 -1.3946313 -0.35219708 -0.08675562 -1.0600362 -0.70165014 -0.5730499 -1.2695494
0.28048852 -0.015496136 -0.11452532 0.24419267 -0.09202182 -0.19369802 0.4513176 0.33950606
0.100280754 0.29278 -0.019842703 -0.37526742 -0.38903463 0.005397551 -0.11150497 0.21341905
0.50609684 0.54090005 -0.46970052 -0.39945152 -0.8524748 -0.11817569 -0.62397075 -1.2513094
0.3900112 0.12199504 -0.2620452 -0.13618374 -0.6209036 -0.04594556 0.33253434 -0.7416376
-0.08087542 -0.29386103 -0.49319863 -0.74809885 0.14337459 0.6904923 0.80078346 0.040409412
-0.09497622 0.5970452 0.398225 0.029679626 0.13315447 0.062486984 -0.12759063 -0.27550405
-0.078731395 0.031021224 -0.22014374 -0.05501538 -0.13746643 0.32195798 -0.6021693 -0.16130449
0.034038674 0.35386467 1.1612412 0.9493533 0.21401438 0.49644718 0.41055936 -0.018380594
0.23921414 0.16614458 -0.6040773 -0.4860212 -0.4648836 -0.31649587 -0.27431336 -0.3852497
0.26982674 0.4885772 0.5347081 0.52187026 0.18196681 0.07599879 -0.26452667 -0.60758793
-0.30479333 -0.1795072 0.29282558 -0.34029835 -0.4606895 -0.648378 -0.46699253 -0.43461597
-0.65680975 -0.38761774 -0.6211747 -0.5778234 -0.56958765 0.1822077 -0.3631911 -0.35566217
0.08533738 -0.26694477 -0.57251984 0.77547044 0.61075664 1.0294267 0.07487308 -0.21089944
0.5462462 0.16258198 0.009566259 0.4033425 0.24282026 -0.51926476 -0.012287664 -0.28775793
-0.24948157 -0.106763996 -0.39245006 -0.030122103 -0.08144721 -0.6690786 -0.37139967 -0.8755493
0.23176846 -0.112586506 -0.06095209 0.67897826 -0.13239267 0.32515857 0.26571202 0.050949693
0.34333795 0.8077507 0.039210375 0.23135023 0.34671658 -0.33041102 -0.7360316 0.55524397
0.35436127 0.2915937 0.51273274 0.2643961 -0.70949614 0.12077272 0.36536437 -0.4795683
0.16648632 0.6312073 0.8791804 0.47092783 0.9901405 0.8239929 0.54810613 0.51128834
0.46905142 -0.31229344 0.18249325 -0.09246298 -0.07497685 0.102876775 -0.4256343 0.6064034
0.2755094 -0.36577234 0.5610093 0.3014981 0.7218504 0.08356391 0.12708339 0.470027
0.25040972 -0.042359307 -0.0025827151 0.6912582 0.6713116 0.5388548 0.48823315 0.7102333
0.36118686 -0.0625978 -0.035107486 -0.58633715 -0.33621314 0.057121366 -0.092746966 -0.21431355

layer2.0.bias f4 [64]
00000000: 701f 57bd c44c 0cbd a45c 10be 2d68 8e3c
00000010: 9e3f 59bd 3294 9b3d 8d03 e53c 89dc 273c
00000020: 727f ebbd 8687 b2bd 1c3b c2bc 0390 8bbd
00000030: 934d 473d c0b7 f0bd 54b8 bfbd b1d1 75bd
00000040: d3db 663d a087 ba3d ffef 78bc cfd7 b63d
00000050: eb10 663c fd68 803c b4a5 12be 1259 483d
00000060: c0fc 24bd 4913 a83d 831b c13c 7c23 d3bc
00000070: 2ab6 443d feb2 a13c 70c7 88bd 4fec 73be
00000080: cae4 20bd 79a6 753d ce00 e7bb f9db ccbc
00000090: 1fec d6bc 1a4b 823d 2d00 613d d2c4 e23d
000000a0: ab9c 19be 58b8 42be 80a9 d23d bba9 4dbe
000000b0: 64d1 0f3d d4e8 3b3d e6b7 8dbd da9e 27bd
000000c0: d332 043e cb5c f13d ab9b 12be 9473 f13c
000000d0: 9534 a53c 956b 0a3b 4280 e7bd 58cf 043e
000000e0: c2e8 3e3e ef0a 133d 674a 33bd 8009 62bd
000000f0: 5b5a ee3d 3b89 533d 455c b5bd 82b0 0e3e
-0.052520216 -0.034252897 -0.1409784 0.01738366 -0.053039186 0.075966254 0.027955795 0.010245451
-0.11498918 -0.08717255 -0.023709826 -0.068145774 0.048657965 -0.117537975 -0.0936133 -0.06001443
0.056361984 0.091079 -0.015193938 0.08927881 0.0140421195 0.015675062 -0.14321023 0.04891307
-0.040280104 0.08206803 0.023572689 -0.025773756 0.048025288 0.01973867 -0.06678665 -0.23820613
-0.03928069 0.059973214 -0.0070496565 -0.025007235 -0.026235638 0.06361981 0.05493181 0.11072697
-0.1500117 -0.19015634 0.10286236 -0.20084278 0.0351118 0.04587634 -0.069198415 -0.040922977
0.12910013 0.11785277 -0.14317195 0.029474057 0.020166675 0.0021121253 -0.1130376 0.1296972
0.18643478 0.0358991 -0.043772127 -0.05518484 0.11638328 0.051644545 -0.0885549 0.1393452

layer2.1.weight f4 [64]
00000000: ff97 883f 9842 603f 2321 673f 88f5 313f
00000010: 8a22 673f 74ee 523f 471e 4c3f 33c3 393f
00000020: 1d8a 713f f70d 4d3f 16f5 263f 265e 193f
00000030: c6a0 1b3f 8f72 4e3f fc2c 3e3f 6ca7 a33f
00000040: fe56 473f 802b 583f dcbe 483f 972e f93e
00000050: 7697 603f 34be 553f bda8 3e3f e0f2 423f
00000060: bae2 023f 25bd 2e3f 80b3 523f 5073 8e3f
00000070: 7d53 7a3f 805a 4f3f cf0c a13f 6fb0 513f
00000080: 7741 3f3f 063e 7a3f 5317 303f c928 3b3f
00000090: e7c9 683f 2ebe 673f db72 7e3f 1ae9 863f
000000a0: 3052 163f 9702 403f 61ff 563f 0cde 383f
000000b0: 89cf 333f cb03 153f fb43 5f3f a941 513f
000000c0: d332 5f3f 25c7 5f3f aad3 323f a095 623f
000000d0: 8275 1f3f 7075 4f3f bd94 973f 4bae 6f3f
000000e0: 82f9 5b3f 1510 133f ea7b 393f 975c 423f
000000f0: 6eff 2c3f 9a44 773f 5a84 723f 2809 b93f
1.0671386 0.87601614 0.9028494 0.69515276 0.9028708 0.823951 0.797337 0.72563475
0.9435137 0.80099434 0.6521772 0.59909284 0.60792196 0.8064355 0.7428739 1.2785468
0.77867115 0.84441376 0.7841623 0.48668358 0.8773111 0.8349335 0.74476224 0.7615185
0.5112721 0.6825736 0.82305145 1.112894 0.97783643 0.8099747 1.2582034 0.8190984
0.74709266 0.9775089 0.6878559 0.7310911 0.9093308 0.90524566 0.99394006 1.0539887
0.5871916 0.7500395 0.8398343 0.72213817 0.7023855 0.5820891 0.87213105 0.81740814
0.87186927 0.87413245 0.69854224 0.8850956 0.6228868 0.8103857 1.1842266 0.93625325
0.85927594 0.57446414 0.724547 0.7592253 0.67577255 0.9658905 0.947332 1.4455919

layer2.1.bias f4 [64]
00000000: 7925 76bf b214 33be bdab 133c f34c 7abc
00000010: 81f5 39bf 8b31 4fbf 7017 36bf 3225 c0be
00000020: 0428 3cbd ea5c 0dbf 5e4f c5bb b1d2 23be
00000030: beb6 e2be bb17 d1be 1d85 00bf 981d 4abf
00000040: 3f31 eabe 6217 87be 979f 21bf d2a3 b7be
00000050: 13ec dbbe ee3d 61be d11c 1ebe 13ea 13bf
00000060: 1382 96bd 56ef 81be 47ea 2cbf f77e 99bf
00000070: e99b 11bf 816d c6be cd59 44be 73f3 35bf
00000080: e841 4fbf a686 33bf 34d1 20bf 8360 1fbf
00000090: b0f3 bdbe a11e 34be b72a 52bf 2bf3 47bf
000000a0: 2e30 47be e36d 2cbf 7f9f 24bf 37e1 25bf
000000b0: 5cec dbbe 67e6 2fbe 2ae3 1cbf cdd2 28bf
000000c0: 626a 3d3e cc54 0bbf ade4 16bf fe33 04bf
000000d0: 876b a3be f2a4 0abf 9405 07bf 48c0 99be
000000e0: 8fe1 50be 305f 91be 13e4 40bf bba9 3ebf
000000f0: fef2 18bd ed67 15bf 55fe 5abf 21a6 cabd
-0.9615093 -0.17488363 0.009013114 -0.015277135 -0.72640234 -0.8093497 -0.7112951 -0.37528378
-0.0459366 -0.552199 -0.006021424 -0.15998341 -0.44280046 -0.40838417 -0.50203115 -0.78951406
-0.45740697 -0.26385027 -0.6313414 -0.35867172 -0.42953548 -0.2199628 -0.1544068 -0.57779044
-0.073490284 -0.2537791 -0.6754498 -1.1991872 -0.56878525 -0.3875542 -0.19174881 -0.710746
-0.8095994 -0.7012733 -0.6281922 -0.6225664 -0.3709998 -0.17589809 -0.8209643 -0.7810542
-0.19451973 -0.67355174 -0.6430587 -0.64796776 -0.42953765 -0.17177735 -0.61284125 -0.65946656
0.18497613 -0.54426265 -0.5894268 -0.51641834 -0.31917974 -0.54157937 -0.52742887 -0.3002951
-0.20398544 -0.28392935 -0.75348014 -0.7447774 -0.03734111 -0.58361703 -0.8554433 -0.09894968

layer2.1.running_mean f4 [64]
00000000: 8523 e23e 75cc 933d dad3 3041 3bb7 9a40
00000010: 11d3 28c1 0858 97c1 9abf f7c0 5e19 73bf
00000020: 233f 9340 18f1 a0be 9b7c 17c0 f02c 3e3f
00000030: 68f8 fd40 15ec f63f fd54 25bf b0df 60c0
00000040: 2c33 ba40 102a f1c0 1f01 c4c0 702f 7e3f
00000050: 1dc9 72c1 f778 a941 42cb 05c0 1ea0 47c0
00000060: d3c3 b340 4d0e f840 2e9d 56c1 2c90 a6c0
00000070: 0bd1 babf 9982 b13e 5101 0641 1579 4cc1
00000080: 5e43 14c1 3ec4 9bc1 6163 5cc1 4b85 28c1
00000090: 649b 4941 0cc9 17c1 2d79 7bc1 570d 28c1
000000a0: 8e25 8840 9d8e 1740 1842 c6c0 21d2 2ec1
000000b0: 2029 2340 787a 3f3f 7f32 23c1 4484 47c1
000000c0: 4e9d e9c0 e866 83c0 242b 1dc1 0722 42c0
000000d0: b3a2 4dc0 130a c7c0 edc7 13c0 920a dd3f
000000e0: 1526 edbf 46fd 3ac0 2439 0e41 c254 c33f
000000f0: 2f4a bc40 2f21 02c1 1e83 bac1 0e71 bbc0
0.44167724 0.072167315 11.051722 4.834867 -10.55153 -18.917984 -7.742139 -0.9496058
4.601457 -0.3143394 -2.3669803 0.7428732 7.936573 1.9290797 -0.64582807 -3.5136528
5.8187466 -7.5363846 -6.125137 0.99291134 -15.1741 21.184065 -2.0905309 -3.1191478
5.6176543 7.7517457 -13.413374 -5.205099 -1.4595045 0.3466995 8.375321 -12.779561
-9.266447 -19.470821 -13.774262 -10.532542 12.600437 -9.486584 -15.717084 -10.503257
4.2545843 2.3680794 -6.195568 -10.926301 2.549385 0.7479625 -10.199828 -12.469791
-7.300452 -4.106312 -9.823032 -3.0333269 -3.2130554 -6.21998 -2.3090775 1.7268851
-1.8527247 -2.9217086 8.88895 1.5260241 5.8840556 -8.133101 -23.314022 -5.8575506

layer2.1.running_var f4 [64]
00000000: 6f9f 2342 1e0a de42 4550 9e42 fe18 6042
00000010: e604 4b43 3258 1f43 3322 6743 569b 7842
00000020: e9d2 4442 12a9 0843 8875 4042 303c 3242
00000030: 7c75 1942 ac96 a242 9da3 9042 a55e 5943
00000040: da8d 9942 42c8 7342 3116 5043 4eb3 5842
00000050: 6366 3543 b0b1 af42 9ecc 7142 c805 6242
00000060: c388 9242 2cec 2842 0e56 8043 4c30 c643
00000070: e988 e042 bbbb f042 9bfc b942 e042 7643
00000080: a58e eb42 609b 8943 63df a542 fca8 5143
00000090: 4fb9 1243 078f 8142 ea00 6843 d0af 9a43
000000a0: cf90 9c42 7f84 0b43 91a6 5643 cebb 0943
000000b0: fba2 5e42 5d94 0b42 8a88 2943 5d7d ef42
000000c0: 12ac d942 872d 1043 e2ca 3043 d7a1 e441
000000d0: f0a8 8542 2667 e742 b434 0e43 bb76 0043
000000e0: 3dd0 6c43 9739 9442 68ca 8842 bd43 5742
000000f0: 80d2 af42 36fc 9c43 24cf 3e43 08eb 0743
40.905697 111.01976 79.15678 56.024406 203.01913 159.34451 231.13359 62.151695
49.205967 136.66043 48.114777 44.558777 38.36473 81.29428 72.31956 217.3697
76.777054 60.945564 208.08669 54.175102 181.39995 87.847046 60.44982 56.505646
73.26711 42.230637 256.6723 396.37732 112.2674 120.36666 92.99337 246.26123
117.7786 275.21387 82.9363 209.6601 146.72386 64.77935 232.00357 309.37354
78.28283 139.51756 214.65065 137.73361 55.65916 34.894886 169.53336 119.74485
108.836075 144.17784 176.79251 28.579023 66.829956 115.70146 142.20587 128.46379
236.81343 74.11248 68.395325 53.81615 87.91113 313.9704 190.80914 135.91809

fc1.weight f4 [8, 576]
00000000: 50f0 403e 0904 e83d 7270 ca3e b6ba 21bc
00000010: 5663 213f 9a5d a53e 4e76 11be 5c74 9f3e
00000020: f763 303e 3e3c 5dbe 4456 c3be 235b 74be
00000030: 1b41 7ebe 67d6 68be ce42 f6be 5a16 0dbf
00000040: 3b87 3ebe 85d5 57be 7d30 173f 06ce a23e
00000050: 796c 933e 0394 f63e 2ce1 993e 4af7 d73e
00000060: e48f 1e3f 317a 0c3f 6fa1 083f 2d2b 0abe
00000070: ef93 8bbd 55f2 bebd 7277 f93d 33bf 533e
00000080: e456 9a3e 71db 04be 5b59 3ebe a44d 02be
00000090: b16c 863e 49f8 5a3e 35b3 683e dd54 a93e
000000a0: f564 ea3e d7da b33e 824a 1c3e 5d51 f33e
000000b0: 2c6b 853e 493e 813e 1404 163f 811d cb3e
000000c0: 4d14 193e 6cec c83e 4325 2e3f be56 ab3e
000000d0: 2832 0c3f 7075 303f f61d 21bf 3518 27be
000000e0: 5cc7 0dbf 6fe3 81be e76a d83d 29cc 74be
000000f0: cb2b b4be dd65 81be 8f62 03bf 8a11 28bc
00000100: ff8e 383e 3048 823e b4da c93e dd54 d13d
00000110: 3903 be3e 7467 0fbe 0b5a da3d 71fc 4f3e
00000120: 4402 9e3e 0974 093f 1fa9 d53e 0237 943e
00000130: 567d 033e 13c4 973e e289 533d 83d3 c23e
00000140: 5c8a 203e ac45 36bd 45a0 e43e f684 a53e
00000150: 1b41 b8be df0b eb3d 2fc7 b03c 1fa8 0bbe
00000160: a9e8 6abe 23a3 c63d 9f91 e2be 2aa9 91be
00000170: bae5 f2be 33b3 10bf b2c6 a7be a6ca 12bf
00000180: c4b7 0abf da01 21bf 9e6a c2bd d68c 23be
00000190: 4add 253f 92da 50bd 235f e33d 3218 f63e
000001a0: 78ff d13e 8826 943e 9255 613d ef79 163e
000001b0: bbf6 af3e d5cc 383e 5cbd 073f 721d e83d
000001c0: 62ae 03bf 8926 a7bd 8cd2 473f a708 4a3e
000001d0: d409 933f 10d8 a8be 1cfb 8f3d ca5d 4cbf
000001e0: 79c5 46bf 4438 113e 81b3 1ebf df9c 8abe
000001f0: 639e 2cbf 49f2 2bbf 66d7 9cbe 5869 74be
00000200: e3fe abbe db83 063e 18a2 9cbe d85f 22be
00000210: 3dd8 1abf 703c adbe 6019 42bf fbc0 e6bd
00000220: 0c40 a9be 98ab 883d 507f 6cbd 5b6e 18bf
00000230: 6f4f 2dbe d8b5 aa3e b432 1dbe 8f75 e73d
00000240: 9984 193f 1374 b13e 022d 013f b53b b93e
00000250: 49e9 3abd ee94 303f 871b 673f 3515 9f3e
00000260: 3c43 593f ba2f ee3d 8429 433e 49bb ef3e
00000270: 173e cd3d 4842 0bbe 4baa a9bd 9550 df3e
00000280: 9cd7 6c3e 96ed 6f3e 45a4 3e3f 8182 813f
00000290: c94a 823f 8ff3 c83e bf1b 813f bdbc 4d3f
000002a0: 45df 2f3f 86e0 973f da43 9b3f 8a55 28be
000002b0: 054f 0fbe 273d f03b c545 8bbe 09ec 0bbf
000002c0: c836 94bd aff6 d7bd fb8f e93d 86a9 973d
000002d0: f8c7 1ebf 1c66 1dbf 0f72 a8be c685 abbe
000002e0: d236 2abf 83ed 09bf cb30 74be a3c0 44bf
000002f0: 0a93 28bf b603 11bd 0875 10bf 6d0f 8abd
00000300: d696 e2be 42be c3be af61 acbe 8c14 a03b
00000310: d25a 8abe d239 13be d49d dc3c 6834 90bc
00000320: 46c5 55be 1e2a 7bbe 515e 0abf bea1 2bbf
00000330: b35b 83bd 706a 42be df55 d7be 3b2c 873e
00000340: d0ae 83bb 96f2 b0be 8e90 7d3e 5dc3 b1be
00000350: e3b4 56be d8f4 953e d602 2abe b3a1 5fbe
00000360: 7909 6bbe 5ebb 24bf 72ea e3be 5edc 45bf
00000370: 46f8 2bbf 7b78 66be 2c96 42be c2ee ebbe
00000380: f5e9 f7be cdff 123e 666e 363e 9920 0fbe
00000390: ad8b a6be 1b34 083e 35ee 57be 91bc d53d
000003a0: 70e9 a6bd 9aee 7f3e 6656 4cbe 3a1f d43d
000003b0: 18f1 c9be 3d9b 58be 37bd 803e 7b4a fdbe
000003c0: 8b80 0dbf 47bc a73e 72e1 05bf e7a2 b63d
000003d0: 4917 0abf 8677 91be 3ecc fd3d e4c8 8abf
000003e0: edce ebbe ccac 2c3d b446 113c 371e 47be
000003f0: e877 d63d f266 fb3c 4786 443d 8c32 3d3c
0.18841672 0.11328895 0.39538914 -0.0098711755 0.630422 0.32297975 -0.14205286 0.31143463
0.17225634 -0.21605012 -0.38151753 -0.23862891 -0.24829523 -0.22738038 -0.48097843 -0.5511223
-0.18606274 -0.21077545 0.5905836 0.31797808 0.28793696 0.481598 0.30054605 0.42180854
0.6193831 0.5487395 0.5337133 -0.13493033 -0.068153255 -0.09323565 0.121809855 0.20678405
0.30144417 -0.12974335 -0.18588774 -0.1272493 0.262548 0.21383776 0.22724612 0.33072558
0.4578015 0.351279 0.15262797 0.47523013 0.26058328 0.25242832 0.5859997 0.39670947
0.1494915 0.39242876 0.68025607 0.33464617 0.5476403 0.68929195 -0.6293634 -0.16317828
-0.55382323 -0.2536883 0.10567265 -0.23906006 -0.3518966 -0.25273028 -0.51322263 -0.010258088
0.18023299 0.254457 0.3942467 0.102212645 0.37111834 -0.14004308 0.106617056 0.20311143
0.30861104 0.5369268 0.41730592 0.28948218 0.1284078 0.2964178 0.051645167 0.38051996
0.1567778 -0.044500038 0.44653526 0.32328004 -0.35987172 0.114768736 0.021579353 -0.13638352
-0.22940315 0.096990846 -0.44251725 -0.28449374 -0.47440892 -0.56523436 -0.3276878 -0.57340467
-0.54186654 -0.6289345 -0.09492992 -0.15971693 0.64790785 -0.050989695 0.1110213 0.48065335
0.4101522 0.28935647 0.055013247 0.14694951 0.34367928 0.18046887 0.53023314 0.11333741
-0.5143796 -0.08161647 0.78055644 0.19729863 1.1487374 -0.32977343 0.07030317 -0.7983061
-0.7764507 0.1418162 -0.6199265 -0.27072808 -0.6742918 -0.6716657 -0.30633086 -0.2386831
-0.335929 0.13136236 -0.30592418 -0.15856874 -0.60486203 -0.33835173 -0.7581997 -0.11267277
-0.33056676 0.06673354 -0.057738602 -0.5954339 -0.16924833 0.3334186 -0.15351373 0.113017194
0.5996795 0.3465887 0.504593 0.36178365 -0.045632634 0.6897725 0.9027638 0.31070867
0.84868217 0.11630197 0.19058806 0.46822575 0.10021608 -0.13599503 -0.08284434 0.43616167
0.23129123 0.23430476 0.74469405 1.0117952 1.0179073 0.3924832 1.0086592 0.80366117
0.6870006 1.1865394 1.2130082 -0.1643888 -0.13994987 0.0073315087 -0.27201667 -0.54657036
-0.07237011 -0.10545098 0.11404415 0.07405381 -0.6202388 -0.6148393 -0.3289952 -0.335005
-0.664899 -0.5387804 -0.23846738 -0.7685644 -0.65849364 -0.03540393 -0.56428576 -0.067412235
-0.44255704 -0.38231093 -0.33668277 0.004885262 -0.27022415 -0.14377525 0.026930727 -0.017603114
-0.20876035 -0.24527785 -0.54050165 -0.67043674 -0.064139746 -0.18985915 -0.42057702 0.26400933
-0.004018642 -0.34560078 0.24762174 -0.34719363 -0.2096744 0.29288363 -0.16602644 -0.21839027
-0.22952832 -0.643484 -0.44514805 -0.7728938 -0.6717571 -0.22506897 -0.19002599 -0.46080595
-0.48420683 0.14355393 0.17815551 -0.13977279 -0.3252844 0.13301127 -0.21086963 0.10436357
-0.081499934 0.24993363 -0.19954833 0.103575185 -0.39441752 -0.21152969 0.2514436 -0.49470887
-0.55274266 0.32760832 -0.5229713 0.0891779 -0.5394178 -0.28411502 0.12392472 -1.0842557
-0.4605631 0.04215698 0.008866955 -0.1944512 0.10472089 0.030688737 0.04797962 0.011547696

fc1.bias f4 [8]
00000000: fd67 7f3f 2579 873f 5a10 ce3f 7238 df3f
00000010: dcb3 173f 4afa 923f fc78 883f 3bb8 ea3f
0.9976805 1.0583845 1.609874 1.7439101 0.5925882 1.1482632 1.0661922 1.8337473

fc2.weight f4 [1, 8]
00000000: 5f52 17be c267 26be 6f2c 39be 9e75 17be
00000010: dc6e 343e 0c7e 1bbe 17f4 243e 1a9b 233e
-0.14777516 -0.16250518 -0.18083356 -0.14790961 0.17620414 -0.15184802 0.16108738 0.15977135
